src/results/weights/DenoisingCNN_STL10.pth (torch, 759802 bytes, 26 tensors)

net.0.weight f4 [32, 3, 3, 3]
-0.16596757 0.16371939 0.025657006 -0.12820987 -0.11969389 0.08957193 0.10113654 0.016511656
0.008496209 -0.23294461 -0.039816316 -0.04378573 -0.20867075 0.14831974 -0.17598538 -0.104780264
-0.17701475 -0.10627074 0.14837343 0.050054416 -0.14785704 0.072747685 -0.19964647 -0.0030693298
-0.05641188 -0.12427986 -0.11239125 -0.090504065 0.048482355 0.19101901 0.17664601 0.079746045
-0.06726308 0.18123655 0.10276092 -0.028464954 -0.18912634 0.12180315 -0.1271898 -0.072422214
-0.16821063 -0.0053578694 0.03623046 -0.18808012 -0.08498484 -0.16200255 0.13540004 -0.065731585
-0.052264467 -0.16158047 -0.07089411 0.12034507 -0.16585925 0.03826995 0.16559319 0.06219146
0.10350264 -0.1625867 -0.032122135 0.14368069 -0.01512391 -0.13159123 -0.026567345 0.10313094
0.1125825 0.013812946 0.06611027 0.014176273 0.10710403 -0.043818727 -0.1362645 0.1531395
0.19078217 -0.015559456 -0.07469468 0.086669736 0.22100976 0.2564657 -0.0024263186 0.16209362
0.16288488 0.0979751 -0.1775297 -0.13988474 0.1661072 0.059221376 0.1341524 0.17125636
0.015620568 0.08290199 -0.01584792 -0.0879393 0.041961826 -0.023226695 0.1876314 -0.15252152
0.18240169 0.1127093 0.16386679 -0.11206177 -0.04987915 -0.1295826 0.19108301 0.0836477
-0.10432328 0.13545553 0.08349025 0.042878307 -0.033321757 -0.015575003 -0.15324123 -0.0560164
0.021771075 0.07323509 -0.11386171 0.06180617 0.050860044 0.19166103 0.010524228 0.1437455
0.13677163 -0.14242144 -0.1096623 -0.12439344 -0.002924609 -0.030477922 0.04168542 0.061941754
0.11490742 0.13104671 -0.17675342 -0.19732323 -0.038684186 0.13125014 -0.018211372 0.13055952
0.15690309 -0.06011193 -0.09074401 0.045055024 -0.08830456 0.14807463 0.05104735 -0.061037544
0.14025223 0.1870872 -0.040433142 -0.12689626 0.010382412 0.11262705 0.03935934 0.15878733
-0.032681882 -0.08309179 0.051008478 0.04945643 0.05828863 -0.01623621 -0.16169259 0.13425772
-0.052433144 -0.17594047 0.08238614 -0.081774294 -0.09237017 -0.1508188 -0.007109205 -0.2023792
0.013664853 -0.123137236 -0.0750642 0.011478849 0.081555724 -0.05706344 -0.17197777 -0.068165354
-0.04599434 0.17676431 0.076822884 -0.03277483 0.1532737 0.100189276 -0.044082474 0.12714803
0.09811764 -0.1655363 -0.09972228 0.0042560864 -0.03153566 -0.1701541 0.13399956 0.017339153
-0.1763282 0.18407051 0.13227603 -0.07495866 -0.14968048 -0.005404865 0.004724034 -0.04234039
-0.11114146 -0.021049123 0.09333252 0.05812103 -0.13276592 0.077057354 0.14092822 -0.11485029
0.1558046 -0.006153196 0.008719908 -0.04935362 0.044361625 0.087192155 0.07546581 -0.032606572
0.17450564 0.110013686 -0.20987011 -0.06748446 0.047043752 0.11000199 -0.109792165 -0.08653156
-0.16447681 0.06546764 -0.122557834 -0.077693336 0.016739065 0.010641799 0.06643401 -0.05628373
-0.14457554 -0.10912431 0.11490636 0.02242691 -0.057377305 0.12763023 -0.08917771 -0.016391503
0.16486374 0.0045891902 0.1886216 -0.12566105 -0.1361002 -0.004365141 -0.050003115 0.06092444
0.12543128 -0.16842046 0.07748682 0.11713249 -0.15293974 -0.15445957 0.17211638 0.026104035
00000000: 67f3 29be 0ea6 273e a42e d23c 7349 03be
00000010: 1222 f5bd 7d71 b73d ad20 cf3d 7443 873c
00000020: af33 0b3c 0889 6ebe 6f16 23bd aa58 33bd
00000030: c9ad 55be 21e1 173e 8335 34be 0997 d6bd
00000040: 5b43 35be 79a4 d9bd 34ef 173e dc05 4d3d
00000050: d667 17be bdfc 943d 2070 4cbe cf26 49bb
00000060: 2510 67bd 7086 febd 622d e6bd 325a b9bd
00000070: 6f95 463d 7d9a 433e b1e2 343e e551 a33d
00000080: 3ac1 89bd 1396 393e 5174 d23d 562f e9bc
00000090: 56aa 41be ee73 f93d 0b3e 02be 1952 94bd
000000a0: 683f 2cbe 1191 afbb 6466 143d 1398 40be
000000b0: 880c aebd ffe3 25be 4fa6 0a3e 489e 86bd
000000c0: 4413 56bd 5a75 25be ee30 91bd 7a77 f63d
000000d0: 02d7 29be f3c0 1c3d 4391 293e 79bc 7e3d
000000e0: 31f9 d33d 217d 26be 8092 03bd 0821 133e
000000f0: 47ca 77bc dabf 06be c3a3 d9bc 5036 d33d
00000100: a791 e63d b24f 623c d264 873d 9943 683c
00000110: 5c59 db3d 447b 33bd ec88 0bbe 9ad0 1c3e
00000120: 675c 433e 17ed 7ebc 86f9 98bd e77f b13d
00000130: 6250 623e 794f 833e df02 1fbb dffb 253e
00000140: 4bcb 263e 2ba7 c83d 58ca 35be f23d 0fbe
00000150: 0118 2a3e 1d92 723d 3f5f 093e d45d 2f3e
00000160: 69ed 7f3c 85c8 a93d 7fd3 81bc 8519 b4bd
00000170: 2ae0 2b3d e945 bebc 7222 403e 9a2e 1cbe
00000180: 82c7 3a3e 22d4 e63d b2cc 273e a480 e5bd
00000190: 144e 4cbd 4db1 04be 44ab 433e 7c4f ab3d
000001a0: 72a7 d5bd dbb4 0a3e f0fc aa3d 2aa1 2f3d
000001b0: 657c 08bd 4c2e 7fbc 45eb 1cbe 7471 65bd
000001c0: 4159 b23c 47fc 953d 5430 e9bd 7728 7d3d
000001d0: 9f52 503d ca42 443e d06d 2c3c 0532 133e
000001e0: dd0d 0c3e edd6 11be a196 e0bd fdc1 febd
000001f0: ccaa 3fbb d6ac f9bc 55be 2a3d a3b6 7d3d
00000200: 9554 eb3d 1c31 063e d9fe 34be 1a0f 4abe
00000210: 4f73 1ebd 7066 063e 0430 95bc 65b1 053e
00000220: 34ab 203e ed37 76bd ffd7 b9bd 9e8b 383d
00000230: 05d9 b4bd e0a0 173e 0717 513d 8102 7abd
00000240: 489e 0f3e c993 3f3e 399d 25bd 18f1 01be
00000250: fe1a 2a3c 03a9 e63d 4237 213d 2599 223e
00000260: 70dd 05bd 072c aabd 44ee 503d d392 4a3d
00000270: 0fc0 6e3d cd01 85bc be92 25be db7a 093e
00000280: 23c4 56bd bd29 34be 11ba a83d 4879 a7bd
00000290: 922c bdbd 3e70 1abe 55f4 e8bb 7e3c 4fbe
000002a0: 8ce2 5f3c 602f fcbd 42bb 99bd c811 3c3c
000002b0: b006 a73d 5bbb 69bd f11a 30be 479a 8bbd
000002c0: 9064 3cbd b401 353e 5155 9d3d e63e 06bd
000002d0: c8f3 1c3e 0930 cd3d d38f 34bd 1833 023e
000002e0: e7f1 c83d 5982 29be 323b ccbd a476 8b3b
000002f0: 892b 01bd e03c 2ebe 2e37 093e d70a 8e3c
00000300: 618f 34be fb7c 3c3e 5e73 073e ed83 99bd
00000310: d745 19be 4b1b b1bb 12cc 9a3b 1e6d 2dbd
00000320: 229e e3bd 366f acbc 1f25 bf3d 5110 6e3d
00000330: caf3 07be 3fd0 9d3d 7d4f 103e a136 ebbd
00000340: 3e8b 1f3e c0a0 c9bb f2dd 0e3c 0527 4abd
00000350: 89b4 353d cd91 b23d d28d 9a3d 788e 05bd
00000360: 9bb1 323e db4e e13d 31e8 56be 4b35 8abd
00000370: f3b0 403d b948 e13d b7da e0bd 7537 b1bd
00000380: 9c6c 28be e613 863d 9aff fabd af1d 9fbd
00000390: 5d20 893c f15a 2e3c 8e0e 883d c589 66bd
000003a0: 9c0b 14be 917c dfbd 0754 eb3d a4b8 b73c
000003b0: 7704 6bbd 80b1 023e cea2 b6bd 7947 86bc
000003c0: 0ad2 283e eb60 963b 0526 413e 4aad 00be
000003d0: da5d 0bbe 7509 8fbb 11d0 4cbd e88b 793d
000003e0: 0f71 003e 6a76 2cbe 69b1 9e3d 29e3 ef3d
000003f0: 3c9c 1cbe a62a 1ebe 473f 303e 21d8 d53c

net.1.weight f4 [32]
1.007527 0.9657574 1.0056614 1.0059803 1.0048237 1.0003035 1.0093563 1.0010242
0.9957543 1.003276 0.9835814 1.0074197 1.0109222 1.0124791 0.97265404 1.0012544
0.97427374 0.9944619 0.9991293 1.0188819 0.9842878 1.0028534 0.9646522 1.0672903
0.97813135 1.0121094 0.9870835 1.0043931 0.99877244 0.99290115 0.9930374 1.0055021
00000000: a5f6 803f e13b 773f 83b9 803f f6c3 803f
00000010: 109e 803f f209 803f 9632 813f 9021 803f
00000020: c1e9 7e3f 596b 803f fecb 7b3f 21f3 803f
00000030: e665 813f ea98 813f dbff 783f 1b29 803f
00000040: 016a 793f 0e95 7e3f f0c6 7f3f b96a 823f
00000050: 49fa 7b3f 805d 803f 72f3 763f f89c 883f
00000060: d166 7a3f cd8c 813f 81b1 7c3f f48f 803f
00000070: 8daf 7f3f c52e 7e3f b337 7e3f 4bb4 803f

net.1.bias f4 [32]
-0.0007806776 0.11844005 -0.003581887 0.017931864 0.18845078 0.063002296 0.082325 0.041858032
0.15530142 0.014930504 0.20668839 0.20532337 -0.006099008 0.021688262 -0.0114451945 0.03686578
0.1420316 0.056151364 0.08332675 0.114569694 0.008422491 0.09735695 0.025842685 0.07737612
0.0044559585 0.1816662 0.16926084 -0.031685516 0.016213318 0.002338242 0.060877893 0.02600226
00000000: 63a6 4cba b290 f23d 18be 6abb d8e5 923c
00000010: 3ef9 403e 5907 813d 029a a83d 5473 2b3d
00000020: 5607 1f3e 139f 743c 1fa6 533e 4a40 523e
00000030: 30da c7bb 95ab b13c a084 3bbc 9200 173d
00000040: bb70 113e f9fe 653d 37a7 aa3d 84a3 ea3d
00000050: 7dfe 093c 1563 c73d 0ab4 d33c 5f77 9e3d
00000060: 4a03 923b b406 3a3e b752 2d3e acc8 01bd
00000070: cbd1 843c 313d 193b 195b 793d b102 d53c

net.1.running_mean f4 [32]
-0.59198153 -0.20476119 0.64697427 0.4325697 -0.02538452 0.22098082 -0.24495156 0.056408785
-0.050471846 -0.31842092 -0.045971178 -0.037117198 0.6663534 -0.5327786 0.40392965 -0.2883596
-0.030194689 0.36812833 0.09814786 0.0145999435 0.31055826 0.33709297 0.22342566 -0.157208
0.4881844 -0.024003599 0.13106033 -0.594873 0.51073414 -0.5364721 -0.29650494 -0.48573977
00000000: 1a8c 17bf ebac 51be 1ba0 253f c779 dd3e
00000010: 32f3 cfbc cc48 623e 95d4 7abe e60c 673d
00000020: 91bb 4ebd 1108 a3be 464c 3cbd 3408 18bd
00000030: 2396 2a3f 2e64 08bf decf ce3e dfa3 93be
00000040: da5a f7bc 517b bc3e bf01 c93d 9a34 6f3c
00000050: 7e01 9f3e 7397 ac3e b2c9 643e 22fb 20be
00000060: 4ef3 f93e 32a3 c4bc ae34 063e 9949 18bf
00000070: 79bf 023f 3c56 09bf 7fcf 97be e2b2 f8be

net.1.running_var f4 [32]
0.09206136 0.05274358 0.10248094 0.074080795 0.03358919 0.040303845 0.04157762 0.033270042
0.03755989 0.057214007 0.04164561 0.040403344 0.10868657 0.07478134 0.071128175 0.06490426
0.047243726 0.06316342 0.039141558 0.0419363 0.049982812 0.058043897 0.05041809 0.042500142
0.06468738 0.026173372 0.047597446 0.07651817 0.078067794 0.08061206 0.0587113 0.07100697
00000000: ab8a bc3d a709 583d 87e1 d13d acb7 973d
00000010: d294 093d a515 253d 4b4d 2a3d 2b46 083d
00000020: 66d8 193d 3c59 6a3d 9694 2a3d fa7d 253d
00000030: 1097 de3d f626 993d a6ab 913d 86ec 843d
00000040: a382 413d d35b 813d e652 203d 66c5 2b3d
00000050: c7ba 4c3d 70bf 6d3d 3383 4e3d a114 2e3d
00000060: d17a 843d 8a69 d63c 8af5 423d 8fb5 9c3d
00000070: 02e2 9f3d f017 a53d 437b 703d 1a6c 913d

net.3.weight f4 [64, 32, 3, 3]
0.020536585 0.02558035 0.042464554 0.04959406 -0.023932057 0.062382594 0.014514152 -0.0036810115
0.012044991 -0.074876234 -0.05034821 -0.0069754324 -0.028754383 0.017076444 0.0574856 0.03575763
0.008059963 0.0024361373 0.05267859 0.04859237 -0.061117295 -0.04531542 -0.041025154 -0.015035041
0.04385293 0.010130859 0.013071272 0.040407747 -0.0031160421 0.0033604114 -0.028173644 -0.05165434
0.045181148 0.011198548 0.050625462 0.056815922 0.03120269 -0.027983638 -0.019654356 0.02327525
0.04451491 0.004777841 -0.022428619 0.0102423895 0.050142184 0.009581687 0.050020117 -0.007867112
0.024437148 0.007412214 -0.02419674 -0.0068784477 0.061959494 -0.0031611347 -0.03783735 -0.013198674
0.050591893 0.014120516 -0.0034422972 0.041487087 -0.013969363 0.018830817 0.06662743 -0.028548071
-0.0076057077 -0.015454374 0.0057138614 -0.056523655 -0.01932803 0.008130192 0.029499678 0.013781625
-0.024325652 -0.021205354 0.06655346 0.0067326277 0.07360288 0.04008469 0.019325597 -0.00917594
0.07216871 0.018457271 -0.02675156 -0.027487207 0.06408258 0.009019317 -0.03095126 -0.04453582
-0.03198292 -0.047490556 -0.0052725105 0.037662417 0.037849076 -0.03247378 0.02812044 0.041623134
0.01197276 0.021235976 0.068579964 -0.027639389 0.028289674 -0.018261997 -0.04778376 0.07641057
0.005251423 -0.020954289 0.0048175184 0.010979458 0.05622258 0.026798291 -0.06740426 0.052218173
-0.029495712 -0.041823316 -0.024080008 -0.04176759 -0.064626865 0.05435913 -0.035492226 -0.032326277
0.031535633 0.071775086 0.030296357 0.021752272 0.05670248 0.037292246 0.019954108 0.043946788
-0.053312406 0.008277334 -0.016070576 -0.03064258 0.033358533 -0.036463022 -0.0025928107 -0.0059760367
0.019052085 -0.04900891 -0.033876777 -0.04402238 0.069826014 -0.021180473 0.06332505 0.043423712
0.012586667 0.011142254 -0.016475543 0.023837294 -0.01139824 -0.0097074555 0.039837804 0.037885662
-0.008658068 0.046616785 0.034568604 0.053277902 5.288182e-05 -0.024686536 -0.040563907 -0.020777477
-0.022140818 0.0049144956 -0.00062652037 0.03788022 0.018619237 0.012646133 0.04458024 0.014659007
-0.038158163 0.05250569 0.014462687 -0.06483765 -0.026370015 0.016872091 0.0042828643 -0.031738978
-0.050519273 -0.004262995 -0.0508535 0.0017042051 -0.042784393 -0.029527526 0.021207757 0.033874433
0.049407966 -0.003124559 0.015371823 0.04700999 -0.039900336 0.044283602 -0.009564923 0.0021688363
0.044030946 0.05976984 -0.029080978 0.0412232 -0.03629251 -0.05238159 0.052735575 0.029144064
-0.04451444 -0.006046269 0.0455789 -0.040357154 -0.027467065 0.0071063074 -0.0048042 -0.034228515
0.054810744 0.070320584 -0.053969033 0.037986334 -0.023851985 -0.036734715 0.009324872 -0.03561346
-0.009139767 -0.018179635 0.032767337 0.03142359 -0.04036783 -0.04112758 0.023139631 -0.039136864
-0.03231271 0.028642027 -0.0019384129 0.021112535 0.043101314 0.032532353 0.03723037 0.033887118
-0.027342802 0.045550372 0.02250673 0.0064328397 -0.027195873 0.022955889 -0.013020576 0.015997577
0.00903968 0.064602405 0.031996734 -0.048808984 -0.02709344 -0.0063161273 -0.014129399 0.031727146
0.03285887 0.05026793 0.054321107 0.067420706 0.011748449 -0.014564143 -0.034107715 0.015326704
00000000: 573c a83c e28d d13c 50ef 2d3d 2423 4b3d
00000010: 290d c4bc e484 7f3d c4cc 6d3c 203d 71bb
00000020: 5b58 453c b658 99bd ed39 4ebd 2b92 e4bb
00000030: 508e ebbc e6e3 8b3c 0576 6b3d 9876 123d
00000040: ef0d 043c 9aa7 1f3b 81c5 573d cb08 473d
00000050: 2156 7abd a99c 39bd fe09 28bd 8855 76bc
00000060: 219f 333d e7fb 253c e328 563c 9882 253d
00000070: 8336 4cbb 593a 5c3b 6acc e6bc 8093 53bd
00000080: de0f 393d 1d7a 373c a55c 4f3d d0b7 683d
00000090: c99c ff3c f13d e5bc 2c02 a1bc bdab be3c
000000a0: 4455 363d 6f8f 9c3b 39bc b7bc b2cf 273c
000000b0: e461 4d3d 82fc 1c3c e5e1 4c3d 0fe5 00bc
000000c0: 6a30 c83c 28e2 f23b 3e38 c6bc 9a64 e1bb
000000d0: 3dc9 7d3d 0a2b 4fbb 56fb 1abd 403f 58bc
000000e0: 7239 4f3d bd59 673c 2a98 61bb 5dee 293d
000000f0: c1df 64bc 1643 9a3c f673 883d a5dd e9bc
00000100: 4d39 f9bb 5834 7dbc 583b bb3b 5985 67bd
00000110: d155 9ebc 7f34 053c 4fa9 f13c 53cc 613c
00000120: 9746 c7bc dab6 adbc 2e4d 883d 609d dc3b
00000130: 1bbd 963d d82f 243d b750 9e3c af56 16bc
00000140: 30cd 933d b433 973c 1626 dbbc da2c e1bc
00000150: ba3d 833d c2c5 133c 7f8d fdbc 316b 36bd
00000160: 8600 03bd 7585 42bd 06c5 acbb e843 1a3d
00000170: a207 1b3d 3a03 05bd d65c e63c 057d 2a3d
00000180: 6529 443c 12f7 ad3c a773 8c3d 006c e2bc
00000190: bfbf e73c 2f9a 95bc e7b8 43bd 257d 9c3d
000001a0: 2114 ac3b 54a8 abbc 46dc 9d3b 2fe3 333c
000001b0: a649 663d 1788 db3c 3f0b 8abd b9e2 553d
000001c0: fea0 f1bc ed4e 2bbd 7043 c5bc 7e14 2bbd
000001d0: 175b 84bd aea7 5e3d 4c60 11bd 8f68 04bd
000001e0: 822b 013d d1fe 923d 1130 f83c d231 b23c
000001f0: dc40 683d c1bf 183d cc76 a33c 8c01 343d
00000200: 1c5e 5abd a89d 073c 71a6 83bc 2606 fbbc
00000210: f5a2 083d 405a 15bd 25ec 29bb a1d2 c3bb
00000220: 1e13 9c3c 91bd 48bd 60c2 0abd d050 34bd
00000230: f100 8f3d ac82 adbc 90b0 813d 10dd 313d
00000240: 4f38 4e3c 008e 363c b8f7 86bc 6e46 c33c
00000250: afbf 3abc 050c 1fbc f72c 233d ff2d 1b3d
00000260: 92da 0dbc 3ef1 3e3d cf97 0d3d ee39 5a3d
00000270: 6ccd 5d38 6b3b cabc 5726 26bd 8735 aabc
00000280: a960 b5bc c709 a13b 123d 24ba 4a28 1b3d
00000290: 5f87 983c ba31 4f3c c599 363d 552c 703c
000002a0: bc4b 1cbd 3510 573d e8f4 6c3c 9ac9 84bd
000002b0: ee05 d8bc 5737 8a3c 4557 8c3b bb00 02bd
000002c0: 4ced 4ebd 98b0 8bbb c24b 50bd a25f df3a
000002d0: b03e 2fbd b6e3 f1bc e4bb ad3c ebbf 0a3d
000002e0: 0260 4a3d 67c5 4cbb 19da 7b3c 8c8d 403d
000002f0: 896e 23bd b962 353d 32b6 1cbc 0923 0e3b
00000300: cb59 343d 38d1 743d 3b3b eebc a8d9 283d
00000310: 74a7 14bd 148e 56bd 4201 583d 88bf ee3c
00000320: c654 36bd c81f c6bb f1b0 3a3d 8b4d 25bd
00000330: 9c02 e1bc 07dc e83b 8d6c 9dbb 3333 0cbd
00000340: 3b81 603d 3d04 903d a20e 5dbd 8f97 1b3d
00000350: 3d65 c3bc 2477 16bd 59c7 183c 6bdf 11bd
00000360: f6be 15bc 75ed 94bc 0b37 063d 06b6 003d
00000370: bd58 25bd 6575 28bd 538f bd3c fa4d 20bd
00000380: 555a 04bd afa2 ea3c 5812 feba 32f4 ac3c
00000390: 018b 303d a540 053d df7e 183d 38cd 0a3d
000003a0: 03fe dfbc 0793 3a3d 0960 b83c 92ca d23b
000003b0: e1c9 debc fd0d bc3c 4154 55bc 5a0d 833c
000003c0: 2a1b 143c 444e 843d 020f 033d eeeb 47bd
000003d0: 10f3 ddbc 84f7 cebb ff7e 67bc 53f4 013d
000003e0: 0697 063d bfe5 4d3d cf7f 5e3d de13 8a3d
000003f0: 917c 403c 719e 6ebc 88b4 0bbd db1c 7b3c

net.4.weight f4 [64]
1.0109663 0.9845062 1.0061755 1.0003242 1.0427976 1.0077045 1.0256556 0.99216413
1.0024538 0.9942989 0.9966405 0.9912176 0.98841614 0.9950186 0.9815928 0.9943645
1.0419745 1.0013349 1.1127139 0.98650527 0.94527364 1.0264857 1.0014507 1.0052286
1.0164118 0.983504 1.0035112 0.9810945 0.99625003 1.0033511 0.9936096 1.1012387
0.9666426 0.9846307 0.977349 1.084817 0.97582424 0.9877601 0.9914208 1.0035523
1.0050634 1.0002728 0.9654254 1.0176537 1.0121611 0.96227396 1.0005163 1.0089736
1.0111461 0.98043567 1.1518682 0.9911268 0.9733654 1.0777253 0.9867349 1.0382997
0.9910456 0.9626895 0.98863757 1.0332005 1.0263183 1.0137032 1.0041016 0.99989504
00000000: 5867 813f 9908 7c3f 5cca 803f a00a 803f
00000010: 647a 853f 76fc 803f af48 833f 78fe 7d3f
00000020: 6850 803f 5f8a 7e3f d523 7f3f 70c0 7d3f
00000030: d708 7d3f 8ab9 7e3f aa49 7b3f ac8e 7e3f
00000040: 6c5f 853f be2b 803f 696d 8e3f 9c8b 7c3f
00000050: 74fd 713f e263 833f 892f 803f 55ab 803f
00000060: c819 823f ebc6 7b3f 0e73 803f 0229 7b3f
00000070: 3e0a 7f3f cf6d 803f 335d 7e3f 64f5 8c3f
00000080: e475 773f c210 7c3f 8b33 7a3f 49db 8a3f
00000090: 9ecf 793f d9dd 7c3f c1cd 7d3f 6774 803f
000000a0: eba5 803f f008 803f 1e26 773f 7a42 823f
000000b0: 7f8e 813f 9657 763f eb10 803f 0c26 813f
000000c0: 3c6d 813f d5fd 7a3f 6b70 933f 7cba 7d3f
000000d0: 7a2e 793f e7f2 893f a99a 7c3f 01e7 843f
000000e0: 2ab5 7d3f d272 763f 5a17 7d3f ea3f 843f
000000f0: 665e 833f 07c1 813f 6786 803f 1ff9 7f3f

net.4.bias f4 [64]
0.009328282 -0.023147494 0.058873106 0.02954436 0.08425698 -0.052291885 0.036650877 -0.029317008
0.0037567548 0.006698282 -0.010091828 0.03450706 0.0015268512 0.0021181763 -0.03809771 -0.02336215
0.16690584 0.037794556 0.0036161812 0.007232965 -0.042055897 0.046885356 -0.011468992 0.021867413
-0.019328926 -0.007596275 -0.02107086 -0.035673223 -0.0061344667 0.034942262 -0.049997274 -0.03461485
-0.029859854 -0.0984017 -0.008509726 -0.0143879745 -0.0009112815 -0.015251385 -0.007007173 0.010639096
0.0015611068 -0.03835549 -0.04264979 -0.035989434 0.016815722 -0.10099196 0.013813044 -0.043890182
-0.06696981 -0.029402172 0.18016994 0.00033791483 -0.04636044 -0.038385667 0.030750897 0.0015560987
-0.004795399 -0.039261162 -0.0073737316 -0.019299366 0.034910068 0.078991175 0.04446735 -0.029916862
00000000: a7d5 183c d09f bdbc ed24 713d 0307 f23c
00000010: ec8e ac3d 0430 56bd 3b1f 163d 392a f0bc
00000020: e333 763b 437d db3b 3258 25bc 4657 0d3d
00000030: a020 c83a 1ad1 0a3b 580c 1cbd fb61 bfbc
00000040: 5de9 2a3e 77ce 1a3d 74fd 6c3b 8202 ed3b
00000050: ce42 2cbd dc0a 403d 70e8 3bbc 4a23 b33c
00000060: b257 9ebc 2cea f8bb cc9c acbc 161e 12bd
00000070: a303 c9bb 9e1f 0f3d f1c9 4cbd 4dc8 0dbd
00000080: a79c f4bc d586 c9bd 616c 0bbc 8abb 6bbc
00000090: 11e3 6eba f2e0 79bc 6d9c e5bb 9a4f 2e3c
000000a0: 0d9e cc3a a51a 1dbd 8cb1 2ebd a869 13bd
000000b0: 20c1 893c dfd4 cebd 1b50 623c 31c6 33bd
000000c0: 7827 89bd d3dc f0bc 787e 383e 292a b139
000000d0: 72e4 3dbd 4a3a 1dbd 4ee9 fb3c 02f6 cb3a
000000e0: b922 9dbb 50d0 20bd 589f f1bb b419 9ebc
000000f0: dcfd 0e3d 20c6 a13d 6523 363d 3514 f5bc

net.4.running_mean f4 [64]
0.6796809 -0.49130407 1.3390874 -0.8508714 -0.3807761 -0.30147645 0.27895597 0.89334923
-1.2178899 1.196981 1.493636 -0.7229081 -0.5106868 -0.77380276 0.041698594 0.8099134
-0.31449693 -1.0642174 0.3972223 -0.1293887 -0.45234182 -0.30090517 -0.088809885 -1.0359639
0.36031 0.24480224 0.3595204 0.7192501 0.9137274 -1.4017531 1.1273519 -0.52628565
0.54557323 1.1655523 -0.6764504 -0.1270059 0.29419982 0.85995024 0.69308794 -0.68011224
-0.10153404 1.1835066 0.07338015 2.3467252 -0.6902354 1.7000414 -1.5431741 0.6905682
1.5760373 0.3153183 0.007006013 0.28084084 0.92740595 -0.35072908 -0.048627365 -1.2706356
-0.30625093 0.9188081 0.14903995 -1.1367869 0.39087144 0.20646793 -1.1784617 0.90401745
00000000: 91ff 2d3f 358c fbbe 3767 ab3f b5d2 59bf
00000010: 16f5 c2be 1f5b 9abe 51d3 8e3e 89b2 643f
00000020: d1e3 9bbf ac36 993f 772f bf3f 8110 39bf
00000030: 5fbc 02bf f017 46bf 25cc 2a3d 7c56 4f3f
00000040: be05 a1be 4738 88bf b960 cb3e 797e 04be
00000050: 5999 e7be 3e10 9abe f5e1 b5bd 779a 84bf
00000060: 8d7a b83e 70ad 7a3e 0f13 b83e c620 383f
00000070: 0aea 693f a56c b3bf 114d 903f a8ba 06bf
00000080: b0aa 0b3f d130 953f da2b 2dbf d60d 02be
00000090: 5ca1 963e b325 5c3f 366e 313f d61b 2ebf
000000a0: 14f1 cfbd 257d 973f 5548 963d bf30 1640
000000b0: 44b3 30bf f59a d93f bb86 c5bf 14c9 303f
000000c0: 97bb c93f 6671 a13e b292 e53b 5fca 8f3e
000000d0: 7a6a 6d3f c392 b3be 7d2d 47bd 30a4 a2bf
000000e0: eccc 9cbe 0237 6b3f ee9d 183e 3c82 91bf
000000f0: 4d20 c83e 546c 533e d5d7 96bf b06d 673f

net.4.running_var f4 [64]
0.27747637 0.38815528 0.24280451 0.3102963 0.30664518 0.12404918 0.24000911 0.19328398
0.31738657 0.3114158 0.18156797 0.2481831 0.39587438 0.5320794 0.6318126 0.2913595
0.1947149 0.28086224 0.25154966 0.22078474 0.26496264 0.30463144 0.6282763 0.28919742
0.28857052 0.31066987 0.24492191 0.25648397 0.2752144 0.34921426 0.21862037 0.32209948
0.4213944 0.17553563 0.1786576 0.2413723 0.23735106 0.18405159 0.78443277 0.4553372
0.58622557 0.15455961 0.21656236 0.30793458 0.22403036 0.22388534 0.37253445 0.21740912
0.15696464 0.5236404 0.28591892 0.46560776 0.35691765 0.31337994 0.21383254 0.13448687
0.19054544 0.18088557 0.47688615 0.24450652 0.21570832 0.2335222 0.33442852 0.5829988
00000000: 6211 8e3e 4abc c63e bfa1 783e 28df 9e3e
00000010: 9900 9d3e 7f0d fe3d f3c4 753e 3cec 453e
00000020: 7e80 a23e e471 9f3e f4ec 393e b623 7e3e
00000030: 0cb0 ca3e 5b36 083f 78be 213f 132d 953e
00000040: 5863 473e 2dcd 8f3e 1ecb 803e 6515 623e
00000050: 2fa9 873e a7f8 9b3e b7d6 203f af11 943e
00000060: 84bf 933e 1f10 9f3e cfcc 7a3e de51 833e
00000070: e7e8 8c3e 36cc b23e 05de 5f3e 39ea a43e
00000080: 02c1 d73e 9dbf 333e 05f2 363e 4d2a 773e
00000090: 280c 733e 0578 3c3e 96d0 483f f521 e93e
000000a0: e112 163f e044 1e3e 86c2 5d3e 9aa9 9d3e
000000b0: 3768 653e 3342 653e d6bc be3e 7fa0 5e3e
000000c0: 57bb 203e 4c0d 063f f763 923e 2464 ee3e
000000d0: e9bd b63e 5673 a03e ebf6 5a3e edb6 093e
000000e0: 581e 433e 113a 393e 6c2a f43e eb5f 7a3e
000000f0: a4e2 5c3e 7220 6f3e 373a ab3e 693f 153f

net.6.weight f4 [128, 64, 3, 3]
0.02365938 0.026971674 0.06961338 0.006560594 -0.011741117 0.0062991832 0.04063695 -0.00094655453
0.042781703 -0.026892625 -0.047510993 -0.0068540405 0.015541669 -0.025534952 0.009287195 -0.009831382
-0.045610245 -0.031584047 0.030670222 0.033121217 0.0052850214 -0.0009912956 -0.011942032 -0.019880367
0.01005019 -0.057896126 0.02651244 -0.022464743 0.05025978 0.0068518133 -0.01799447 -0.015695738
-0.008053134 0.023207115 0.0036082673 0.023303011 0.020856235 0.0018626739 -0.00997252 -0.0067900266
0.029779077 -0.08072103 0.013128101 0.011746884 0.014867747 -0.05871337 -0.03678567 0.00034012579
0.0036512904 0.02419794 -0.012367026 -0.03686294 -0.013797227 -0.035214312 0.015641058 0.0022172746
-0.030213548 -0.017479844 -0.010225835 0.00960751 -0.014876702 -0.04606703 0.0010034129 -0.011939533
-0.029740673 0.01294484 -0.03368195 -0.025278898 0.01667057 0.010928591 0.031269237 0.06342944
0.058240812 0.0076931855 -0.0054142233 -0.0051672384 -0.0299012 -0.037465308 0.042590518 -0.014347646
0.02205134 0.04320684 -0.011970389 0.03202262 0.022557298 0.055529583 -0.021943068 0.010255989
-0.06642225 -0.0218373 -0.0267891 -0.011055207 0.05035599 0.008873416 -0.024848158 0.0031054288
-0.015785702 -0.047928844 0.0036746631 0.03443135 0.007009564 0.0013226008 -0.025713071 -0.016670732
-0.0211335 0.007710487 0.021701714 0.041276466 0.018928714 0.028946824 0.0121101495 0.016073607
-0.024955982 -0.009516242 -0.0034543942 0.025451692 0.007468513 0.010473685 0.025235249 0.002142963
-0.019368066 -0.032954898 0.006439254 -0.011398627 0.00920312 -0.00032157122 0.053321276 0.005846674
0.024784423 -0.0011617859 -0.035955504 -0.020051936 0.049012166 0.020962078 -0.0354727 0.0027448246
-0.0073004705 -0.0139735285 0.050300658 0.0029558754 0.019165615 -0.005910369 -0.046981048 0.0036833102
0.0110968705 -0.019835047 -0.013804166 0.05828422 -0.020739567 0.0021976666 -0.016545048 -0.0055421563
-0.004716165 0.0084993085 0.015841467 -0.006658895 0.0045321374 0.036808103 0.0051771994 -0.03233113
-0.02884792 -0.04825845 0.03819721 0.030291343 0.03527888 0.024071764 0.00034029814 0.03686934
0.02294978 0.04403164 0.026734702 -0.036374174 -0.04648794 -0.050031636 -0.008504284 -0.0014582679
-0.03961055 0.0060094115 -0.012179849 -0.031379655 -0.0055896817 -0.011090265 -0.020370455 -0.0096194325
-0.018132806 0.04098859 -0.001026249 -0.026743792 0.021319361 0.027626114 -0.016718552 0.008071191
-0.0025876984 0.0166888 0.014406096 -0.0107652955 -0.02932304 0.001861994 0.05024904 0.0064335046
-0.014687032 0.022089798 0.021143876 0.035142563 -0.038691778 -0.017514415 -0.0013386086 0.015803678
0.05872576 0.0567214 0.034628794 -0.028366666 -0.0134675875 0.039196502 -0.030027393 -0.044707563
-0.010612615 -0.013936137 -0.013448549 -0.054066736 0.006018032 -0.025539089 -0.045165837 -0.040373776
-0.048798665 -0.011588977 0.025745131 0.050623715 0.02741725 -0.00960172 -0.0017613842 0.015737984
0.018257407 0.063608885 0.034685463 0.021522272 0.023216628 0.029094307 0.026450291 0.02957133
0.00066366 -0.02991752 -0.015117498 0.009409331 -0.025235482 0.022197822 0.0033849613 -0.034518413
0.011165961 0.038675837 -0.030829415 -0.029418543 0.031750288 0.040344074 0.030603824 0.029032081
00000000: 51d1 c13c b3f3 dc3c 7691 8e3d 40fa d63b
00000010: d05d 40bc 6169 ce3b ee72 263d 3322 78ba
00000020: de3b 2f3d ec4d dcbc e39a 42bd dc97 e0bb
00000030: 7ca2 7e3c ad2e d1bc 5229 183c ce13 21bc
00000040: cfd1 3abd 465e 01bd 1e40 fb3c 1daa 073d
00000050: f92d ad3b 5cee 81ba 83a8 43bc 27dc a2bc
00000060: 8da9 243c 7d24 6dbd 9e30 d93c fb07 b8bc
00000070: 33dd 4d3d 2d85 e03b 2469 93bc 5994 80bc
00000080: 4bf1 03bc d91c be3c ae78 6c3b f5e5 be3c
00000090: b2da aa3c f724 f43a c863 23bc df7e debb
000000a0: 40f3 f33c 1151 a5bd 3f17 573c 0176 403c
000000b0: da97 733c 6e7d 70bd 92ac 16bd e952 b239
000000c0: 7d4a 6f3b c23a c63c 119f 4abc 98fd 16bd
000000d0: c40d 62bc e23c 10bd ad21 803c b24f 113b
000000e0: 6782 f7bc e431 8fbc 438a 27bc d168 1d3c
000000f0: 69bd 73bc c8b0 3cbd f384 833a 089e 43bc
00000100: b6a2 f3bc 9816 543c 16f6 09bd b115 cfbc
00000110: b890 883c d50d 333c 2c14 003d 4be7 813d
00000120: eb8d 6e3d 1e17 fc3b cc69 b1bb f051 a9bb
00000130: 5df3 f4bc 3975 19bd 6573 2e3d 6412 6bbc
00000140: 03a5 b43c a8f9 303d 731f 44bc 272a 033d
00000150: 15ca b83c fd72 633d f3c1 b3bc bc08 283c
00000160: 6308 88bd 23e4 b2bc d174 dbbc e620 35bc
00000170: 1542 4e3d ce61 113c 5d8e cbbc 7384 4b3b
00000180: 0451 81bc 0951 44bd 9ed2 703b e307 0d3d
00000190: 7cb0 e53b 1e5b ad3a 38a4 d2bc 0f91 88bc
000001a0: 2920 adbc 41a8 fc3b cbc7 b13c 8311 293d
000001b0: 6410 9b3c e421 ed3c a669 463c ccac 833c
000001c0: 7d70 ccbc 03ea 1bbc 1e63 62bb 1180 d03c
000001d0: 6eba f43b d299 2b3c 27ba ce3c f470 0c3b
000001e0: c7a9 9ebc b7fb 06bd 6100 d33b 4fc1 3abc
000001f0: afc8 163c 8f98 a8b9 6967 5a3d 7595 bf3b
00000200: b408 cb3c 1147 98ba 1446 13bd f543 a4bc
00000210: fbc0 483d aab8 ab3c d24b 11bd 84e2 333b
00000220: c938 efbb 3af1 64bc 1008 4e3d 5cb7 413b
00000230: 3501 9d3c c5ab c1bb 336f 40bd b163 713b
00000240: a6cf 353c 1c7d a2bc de2a 62bc 6fbb 6e3d
00000250: 06e6 a9bc ba06 103b 7b89 87bc fa9a b5bb
00000260: 0f8a 9abb af40 0b3c f7c5 813c dc32 dabb
00000270: 5382 943b 18c4 163d 7fa5 a93b a66d 04bd
00000280: 7952 ecbc a7aa 45bd ad74 1c3d 8d25 f83c
00000290: 9680 103d 2632 c53c 0b6a b239 4e04 173d
000002a0: 2d01 bc3c 855a 343d bc02 db3c 16fd 14bd
000002b0: 236a 3ebd f9ed 4cbd 8d55 0bbc 5a23 bfba
000002c0: ac3e 22bd 99ea c43b fd8d 47bc f487 00bd
000002d0: a629 b7bb f1b3 35bc f1df a6bc d39a 1dbc
000002e0: 408b 94bc a7e3 273d 3483 86ba cc15 dbbc
000002f0: f1a5 ae3c 2950 e23c 58f5 88bc 073d 043c
00000300: 6096 29bb f3b6 883c 8c07 6c3c ec60 30bc
00000310: df36 f0bc 270e f43a f0d1 4d3d 26d0 d23b
00000320: e1a1 70bc aaf5 b43c ec35 ad3c a6f1 0f3d
00000330: 457b 1ebd 647a 8fbc 4074 afba b776 813c
00000340: 6c8a 703d b354 683d ecd6 0d3d 3661 e8bc
00000350: 28a7 5cbc 838c 203d 02fc f5bc 471f 37bd
00000360: 89e0 2dbc 6554 64bc 4e57 5cbc 1575 5dbd
00000370: e932 c53b 5a37 d1bc d0ff 38bd f95e 25bd
00000380: 1ce1 47bd b1df 3dbc 74e7 d23c d05a 4f3d
00000390: 249a e03c 8850 1dbc 3fde e6ba f2ec 803c
000003a0: 8f90 953c 6045 823d 5812 0e3d 7a4f b03c
000003b0: cc30 be3c 2f57 ee3c 48ae d83c 933f f23c
000003c0: 78f9 2d3a 9615 f5bc 62af 77bc 9829 1a3c
000003d0: a4ba cebc 35d8 b53c 3ad6 5d3b 2e63 0dbd
000003e0: 6ff1 363c 8e6a 1e3d f88d fcbc 28ff f0bc
000003f0: 970c 023d d43f 253d dfb4 fa3c b0d4 ed3c

net.7.weight f4 [128]
1.031572 0.99392533 1.0136089 0.9941645 0.9948965 1.0257658 1.1134449 0.99179
1.0333525 1.0385947 0.98917526 1.0222138 0.98006743 0.97790265 0.9938275 0.9937253
0.99064016 1.0142757 0.99236894 0.9914493 0.99101865 1.0413826 0.97609127 1.0415403
1.0196404 1.0466553 0.9905295 1.0888131 1.0007997 1.0060511 0.98769134 0.99260664
0.97106093 0.9949016 1.0092065 0.9805746 1.0516365 0.9777534 0.9834011 0.99147874
1.0393705 0.9760895 0.98478645 0.9938979 1.0105517 0.99275076 1.0426236 0.99754727
1.001812 0.98922944 0.95020026 0.98903894 0.9958484 1.0163962 0.98727065 0.9982315
0.996951 1.0001402 1.0496765 1.0169321 1.0345004 0.99094105 1.012711 0.982995
0.99948484 1.0034246 0.9884216 1.0191637 1.0031313 1.0087909 1.0158445 0.98923165
1.0408098 0.9915502 0.9794723 0.990715 1.0008764 0.99719536 0.98085415 0.99200726
1.0540979 0.99176174 1.0316638 0.9697845 0.97174436 0.98423034 0.98329324 0.9916151
1.0248362 0.9916947 0.9915469 0.97746843 0.9919544 0.9726097 1.0357296 0.9949417
1.0035297 0.9925233 0.9968097 0.9916032 0.9792145 0.98470366 1.0225079 1.0501171
1.0399326 1.1206998 0.9988419 0.9831529 0.96973693 1.0006312 1.010849 1.0048784
1.030358 1.0056036 0.9944239 0.9939063 0.9719186 1.0299282 0.9885441 0.97895837
0.99381244 1.0026582 1.020729 1.0378028 1.0003885 1.0193523 1.0369768 0.97445655
00000000: 8d0a 843f e471 7e3f f0bd 813f 9181 7e3f
00000010: 89b1 7e3f 4b4c 833f 5d85 8e3f f3e5 7d3f
00000020: e544 843f acf0 843f 973a 7d3f e7d7 823f
00000030: b3e5 7a3f d457 7a3f 7b6b 7e3f c864 7e3f
00000040: 989a 7d3f c9d3 813f e40b 7e3f 9fcf 7d3f
00000050: 66b3 7d3f 064c 853f 1ee1 793f 3151 853f
00000060: 9483 823f cdf8 853f 5793 7d3f 3a5e 8b3f
00000070: 341a 803f 48c6 803f 57d9 7c3f 781b 7e3f
00000080: 7397 783f dfb1 7e3f ae2d 813f f006 7b3f
00000090: 069c 863f 0c4e 7a3f 2dc0 7b3f 8dd1 7d3f
000000a0: 180a 853f 00e1 793f f71a 7c3f 1870 7e3f
000000b0: c259 813f ea24 7e3f b174 853f 425f 7f3f
000000c0: 603b 803f 243e 7d3f 5340 733f a831 7d3f
000000d0: ecef 7e3f 4519 823f c5bd 7c3f 198c 7f3f
000000e0: 2e38 7f3f 9804 803f cd5b 863f d52a 823f
000000f0: 826a 843f 50ae 7d3f 84a0 813f 8fa5 7b3f
00000100: 3dde 7f3f 3870 803f 3309 7d3f f573 823f
00000110: 9b66 803f 0f20 813f 3107 823f 493e 7d3f
00000120: 4139 853f 3cd6 7d3f b2be 7a3f 809f 7d3f
00000130: b81c 803f 3248 7f3f 4219 7b3f 30f4 7d3f
00000140: aeec 863f 19e4 7d3f 8f0d 843f cc43 783f
00000150: 3dc4 783f 85f6 7b3f 1bb9 7b3f 7dda 7d3f
00000160: d52d 833f b4df 7d3f 05d6 7d3f 5f3b 7a3f
00000170: b9f0 7d3f f3fc 783f ca92 843f 80b4 7e3f
00000180: a973 803f 0216 7e3f ec2e 7f3f b5d9 7d3f
00000190: cdad 7a3f 8a15 7c3f 8ae1 823f 3d6a 863f
000001a0: 831c 853f 1773 8f3f 1ab4 7f3f e9af 7b3f
000001b0: ae40 783f af14 803f 8063 813f db9f 803f
000001c0: c5e2 833f 9eb7 803f 9192 7e3f a570 7e3f
000001d0: a8cf 783f b0d4 833f 3a11 7d3f 049d 7a3f
000001e0: 7e6a 7e3f 1b57 803f 3fa7 823f b9d6 843f
000001f0: bb0c 803f 237a 823f a8bb 843f fc75 793f

net.7.bias f4 [128]
-0.07502526 -0.042412076 -0.0573955 -0.021636393 -0.025470365 -0.009095792 0.04391092 -0.006798989
-0.04037163 0.02009255 -0.010838612 -0.10225835 -0.017731994 -0.010049889 -0.08472234 -0.08766399
-0.013555139 -0.10278004 -0.017314492 -0.013955437 0.01014603 0.007832182 -0.02082424 0.07057079
0.02684805 -0.03159935 -0.016550153 -0.05367857 0.007902768 -0.059706993 -0.0110977525 -0.036615595
-0.046995066 -0.009004575 -0.043960754 -0.027074138 0.061525777 -0.06525385 -0.013920802 -0.01594221
0.009050003 -0.05149838 -0.005754851 -0.011315169 0.03253252 -0.009012609 0.034667436 -0.016942758
0.011569716 -0.070651576 -0.03341543 -0.02499631 -0.1217543 -0.0129460525 -0.04317143 -0.045000046
0.017551782 0.0054774536 -0.09820456 0.0033627618 -0.119076416 -0.01802813 0.023421843 -0.02474117
-0.013429709 0.0148128765 -0.036555436 -0.02925683 -0.01782324 -0.06791067 -0.005316309 -0.039897464
-0.014295658 -0.020597644 -0.03728666 -0.012567745 0.009207874 -0.014926714 -0.03175773 -0.0643618
-0.15966323 -0.06087835 0.03613132 -0.051477324 -0.06933848 -0.02825245 -0.018001998 -0.026229786
0.022420362 -0.0067629814 -0.017021272 -0.031532865 -0.034193516 -0.030221578 -0.042571533 -0.014698077
-0.027241763 -0.012718542 -0.009414764 -0.0225719 -0.01701207 -0.016860172 0.05109626 0.022844138
-0.028376473 0.0642527 -0.054797404 -0.022405757 -0.023315104 -0.019102586 -0.12311687 -0.0011772279
0.0075871847 0.01497289 -0.006756165 -0.015157618 -0.052976307 -0.054115344 -0.017649593 -0.027327448
-0.07218973 -0.031108223 -0.032860868 -0.04369102 -0.029578377 0.028801864 -0.05739613 -0.020590505
00000000: d8a6 99bd 49b8 2dbd 8b17 6bbd ce3e b1bc
00000010: 3aa7 d0bc 8406 15bc f0db 333d 0eca debb
00000020: b95c 25bd 2299 a43c 6f94 31bc d36c d1bd
00000030: b042 91bc 4aa8 24bc e882 adbd 2e89 b3bd
00000040: 6016 5ebc 577e d2bd 1fd7 8dbc 58a5 64bc
00000050: 893b 263c 8d52 003c 9997 aabc 6b87 903d
00000060: 71f0 db3c 526e 01bd 3094 87bc 0fde 5bbd
00000070: 9d7a 013c 528f 74bd 59d3 35bc 3cfa 15bd
00000080: e67d 40bd ed87 13bc 3110 34bd 95ca ddbc
00000090: 7402 7c3d cfa3 85bd 1314 64bc 3d99 82bc
000000a0: 7746 143c f7ef 52bd 3093 bcbb 4263 39bc
000000b0: d240 053d 9fa9 13bc 71ff 0d3d 8acb 8abc
000000c0: e88e 3d3c c6b1 90bd 9ede 08bd 10c5 ccbc
000000d0: 525a f9bd ae1b 54bc 86d4 30bd f851 38bd
000000e0: c1c8 8f3c 367c b33b 791f c9bd c861 5c3b
000000f0: 56de f3bd bbaf 93bc 2adf bf3c ffad cabc
00000100: 4808 5cbc b5b1 723c 27bb 15bd 05ac efbc
00000110: 0b02 92bc c014 8bbd 6f34 aebb 866b 23bd
00000120: 5638 6abc 64bc a8bc e6b9 18bd f1e8 4dbc
00000130: 9fdc 163c 2d8f 74bc 6514 02bd 1fd0 83bd
00000140: c27e 23be 945b 79bd 6ffe 133d e3d9 52bd
00000150: 5501 8ebd af71 e7bc ed78 93bc d9df d6bc
00000160: e8aa b73c 009c ddbb 3270 8bbc 9b28 01bd
00000170: 800e 0cbd 3e93 f7bc 7d5f 2ebd 34d0 70bc
00000180: 1e2a dfbc 6e61 50bc 6240 1abc b5e8 b8bc
00000190: e65c 8bbc 581e 8abc 504a 513d a123 bb3c
000001a0: c775 e8bc eb96 833d 3e73 60bd 478c b7bc
000001b0: 51ff bebc 077d 9cbc b324 fcbd 374d 9aba
000001c0: eb9d f83b da50 753c d262 ddbb a857 78bc
000001d0: affd 58bd 0da8 5dbd e195 90bc d0dd dfbc
000001e0: 36d8 93bd acd6 febc 1e99 06bd 5bf5 32bd
000001f0: 5a4e f2bc e3f1 eb3c 3418 6bbd 6bad a8bc

net.7.running_mean f4 [128]
0.2535034 0.011131304 0.80756164 -0.27229616 0.12341254 0.5129716 -0.31728494 -0.09641682
-0.112676844 -1.7842273 -0.30908242 -0.38563162 -0.3100366 0.23420207 0.33714995 1.3805377
0.304086 0.78923905 0.23689103 0.1038111 -0.20253868 -0.49721548 0.10609177 -1.5799326
0.077155754 0.46700335 -0.007683755 -0.051917452 0.44072786 0.914912 -0.49805295 -0.35639483
-0.773079 -0.31889343 -0.1492289 -0.74940485 -0.26788226 0.22929631 -0.09208679 0.03836303
0.112844795 -0.48383135 -1.1036572 -0.4509822 -0.64035434 0.23475763 0.19986467 0.02896269
-0.90049696 1.640427 0.39407533 0.4135438 1.2785916 0.47637466 -0.40365565 0.35486954
0.3105564 -0.32314694 1.0949091 -0.3013089 0.82177097 0.83083016 -0.55650246 0.38565692
0.014120245 -0.10505409 -0.5517944 0.31360364 0.4253839 1.5194182 0.25956696 0.021969752
-0.8630549 -0.10741402 -0.9369381 -0.17787704 -0.35562897 -0.34304243 -0.18789986 1.0672132
-0.43717292 1.572731 -1.0648811 -0.5713021 0.18419947 0.22920826 0.28335094 -0.37014234
0.3389853 -0.1593884 -0.10328586 -0.36773464 -0.40761703 -0.31392223 0.17313203 0.060355734
-0.008467035 -0.270322 0.085259385 -0.14678259 0.17164582 -0.3287577 -0.9451627 0.026542166
0.2900143 -0.2832679 0.38751686 0.39852962 -0.21381105 0.013460402 0.89533025 0.24962817
-0.8781443 -0.4587126 -0.4593902 -0.32752037 0.54675245 0.18132445 -0.14411052 -0.043642074
-0.42750874 -0.14464702 0.20475352 -0.049304835 -0.6802497 -0.08514687 0.34685048 -0.45143706
00000000: 33cb 813e 1360 363c 5cbc 4e3f 676a 8bbe
00000010: b7bf fc3d 1b52 033f 2c73 a2be 2f76 c5bd
00000020: 1ec3 e6bd 8f61 e4bf 0d40 9ebe 8271 c5be
00000030: 1ebd 9ebe abd2 6f3e eb9e ac3e 76b5 b03f
00000040: 29b1 9b3e 920b 4a3f 9093 723e ea9a d43d
00000050: 4d66 4fbe 0793 febe a446 d93d 3b3b cabf
00000060: d603 9e3d 101b ef3e 02c8 fbbb 65a7 54bd
00000070: 15a7 e13e ac37 6a3f cc00 ffbe 6279 b6be
00000080: 81e8 45bf 0046 a3be 76cf 18be ffd8 3fbf
00000090: dd27 89be a7cc 6a3e 0098 bcbd 8d22 1d3d
000000a0: 2c1b e73d beb8 f7be a444 8dbf 24e7 e6be
000000b0: 43ee 23bf 4e64 703e 53a9 4c3e 2a43 ed3c
000000c0: f886 66bf 83f9 d13f 3ec4 c93e 03bc d33e
000000d0: e4a8 a33f 61e7 f33e f4ab cebe 76b1 b53e
000000e0: 4001 9f3e 8473 a5be fb25 8c3f 2945 9abe
000000f0: 955f 523f 49b1 543f f276 0ebf d374 c53e
00000100: 9a58 673c 9926 d7bd 6642 0dbf a890 a03e
00000110: ebcb d93e 4c7c c23f f6e5 843e e9f9 b33c
00000120: 2af1 5cbf e2fb dbbd 2ddb 6fbf 6625 36be
00000130: 0015 b6be 42a3 afbe d268 40be 719a 883f
00000140: 21d5 dfbe 404f c93f 064e 88bf db40 12bf
00000150: c99e 3c3e 92b5 6a3e 6013 913e 4c83 bdbe
00000160: 7b8f ad3e b636 23be 8987 d3bd b747 bcbe
00000170: 2eb3 d0be 6aba a0be 8649 313e 9337 773d
00000180: 52b9 0abc a567 8abe 799c ae3d 2d4e 16be
00000190: ecc3 2f3e ee52 a8be 2ff6 71bf f56e d93c
000001a0: c17c 943e 7d08 91be 9c68 c63e 130c cc3e
000001b0: 49f1 5abe 0589 5c3c 5d34 653f 879e 7f3e
000001c0: 11ce 60bf 61dc eabe 3135 ebbe c0b0 a7be
000001d0: f8f7 0b3f 1ead 393e b591 13be 08c2 32bd
000001e0: 6de2 dabe 591e 14be e8aa 513e def3 49bd
000001f0: d824 2ebf 7b61 aebd 6396 b13e c222 e7be

net.7.running_var f4 [128]
0.3423541 0.4384276 0.7710918 1.0151598 1.0310941 0.3157718 0.40639716 1.3752582
0.27174425 0.34649858 1.0483414 0.53532135 0.32392982 1.0797201 0.3719634 0.5984735
1.4291761 0.34938622 1.3512357 0.9158269 1.0179404 0.21816815 0.7325937 0.5079818
0.30222017 0.41698492 1.1082859 0.39636645 0.31051567 0.71641284 0.82040197 0.5744124
2.2389746 1.2047555 0.5145647 0.65612596 0.21495822 0.3791087 0.2921528 1.1381629
0.21592732 0.4864312 0.8043545 0.8809944 0.71247256 1.3635702 0.36329558 0.5952322
0.3687696 0.7767978 0.87342787 0.46551627 0.65437496 0.6543958 0.5667614 0.8360448
0.7742461 1.1243852 0.7556846 0.4239898 0.3991006 0.4273966 0.88195676 1.145954
1.6524045 0.7584803 0.5388856 0.37928855 0.26785767 0.6171309 0.68388075 0.6467305
0.34552643 1.2112948 0.67518175 0.53334713 0.3734805 1.165306 0.80907947 0.37566772
0.62672305 0.43762589 0.25830007 0.65664244 0.46907187 1.0859952 1.637166 0.2983657
0.24353416 1.3211443 0.8245401 0.34419292 0.68102884 0.8494727 0.36890137 1.2480053
1.151978 1.7685264 1.9609144 0.91362107 1.2413291 0.6032697 0.586684 0.18432991
0.24184167 0.54324365 0.42439392 0.6623426 0.9073963 0.37857684 0.52350974 0.54478693
0.40809932 0.3655646 0.25378352 0.60115564 0.56726927 0.8366523 1.5428832 0.7518651
0.38956022 0.76973355 0.58852756 0.28060243 0.498928 0.7406624 0.3446898 1.0583879
00000000: 0949 af3e 9579 e03e 4666 453f c2f0 813f
00000010: e4fa 833f d7ac a13e 4a13 d03e 7608 b03f
00000020: 1022 8b3e 4368 b13e 0d30 863f d20a 093f
00000030: 21da a53e 4534 8a3f fd71 be3e 8f35 193f
00000040: 3eef b63f c0e2 b23e 4bf5 ac3f a273 6a3f
00000050: df4b 823f 7967 5f3e 438b 3b3f 180b 023f
00000060: 9abc 9a3e 0c7f d53e 50dc 8d3f 8bf0 ca3e
00000070: e9fb 9e3e d566 373f dd05 523f b10c 133f
00000080: 5c4b 0f40 6e35 9a3f 83ba 033f dff7 273f
00000090: 021e 5c3e 891a c23e 0d95 953e 52af 913f
000000a0: 0d1c 5d3e 830d f93e 2dea 4d3f d988 613f
000000b0: 9a64 363f 7889 ae3f e101 ba3e 2361 183f
000000c0: 5ecf bc3e 38dc 463f f898 5f3f 2658 ee3e
000000d0: 1e85 273f 7c86 273f 4617 113f 0807 563f
000000e0: fe34 463f dbeb 8f3f 8c74 413f 3115 d93e
000000f0: ea56 cc3e bad3 da3e ebc7 613f 9fae 923f
00000100: fe81 d33f c42b 423f 68f4 093f 1c32 c23e
00000110: a424 893e 4afc 1d3f cf12 2f3f 2190 253f
00000120: d7e8 b03e b50b 9b3f b6d8 2c3f 7089 083f
00000130: d638 bf3e bf28 953f d51f 4f3f 8557 c03e
00000140: ec70 203f 8010 e03e e83f 843e b819 283f
00000150: 302a f03e e401 8b3f a88e d13f 64c3 983e
00000160: 0561 793e 421b a93f 0f15 533f 0e3a b03e
00000170: e857 2e3f 0b77 593f a4e0 bc3e a3be 9f3f
00000180: 0474 933f 135f e23f 3eff fa3f 12e3 693f
00000190: dfe3 9e3f e26f 1a3f ec30 163f fbc0 3c3e
000001a0: 58a5 773e 0412 0b3f 294a d93e 498f 293f
000001b0: 204b 683f d3d4 c13e bc04 063f 2877 0b3f
000001c0: 65f2 d03e 492b bb3e eaef 813e 56e5 193f
000001d0: 8f38 113f d82e 563f 327d c53f 3b7a 403f
000001e0: 7074 c73e 420d 453f bea9 163f 1fab 8f3e
000001f0: 7e73 ff3e 0d9c 3d3f 2e7b b03e 4179 873f

net.9.weight f4 [64, 128, 3, 3]
-0.022413353 0.0050565107 -0.053997163 0.020548018 0.0019275851 -0.031968184 -0.018909024 -0.0065281545
0.012627535 -0.010113464 0.040043123 -0.016988963 0.0010201989 0.024174584 -0.0171369 0.017130539
-0.0013458355 -0.014146581 0.024039062 0.021539485 0.0041285614 0.05462038 0.04943437 0.016795328
0.028401606 -0.009535221 0.0286117 -0.012422485 0.033627037 0.00216583 -0.0046506147 0.015336917
0.023844438 -0.0003946827 -0.008931852 0.005689762 0.020258177 -0.012317397 -0.00013152245 0.008546408
0.024439756 0.025903476 -0.0027076553 -0.006089674 0.015621185 0.012015002 0.00043852036 0.0356686
0.014538501 -0.028502429 -0.0053618406 0.02653307 -0.0070354985 0.021898761 -0.017013716 -0.008876086
-0.076841235 0.056479424 -0.0010526195 -0.071318455 0.053817604 0.027752256 -0.015986044 0.01226405
-0.008821566 -0.01900926 -0.025629025 -0.0087373005 0.004581633 -0.009114456 0.017241634 -0.032689817
0.00967465 0.012973954 -0.022394763 0.08742208 0.045154054 0.02078505 0.02415994 0.039224908
-0.039813194 -0.019914314 -0.020121967 0.009358152 0.0012066163 0.005016989 0.014088494 -0.025238898
0.0032133285 0.019608328 -0.02796586 -0.011061731 -0.019615673 0.005824846 -0.033363935 -0.029492665
-0.032157026 -0.0063033784 -0.018023891 -0.021940576 0.030912274 0.011486036 -0.0022417265 0.026191058
-0.0009466006 0.011067512 0.0055269855 -0.015632462 -0.008282121 -0.016534327 -0.023658952 0.018766021
-0.017377282 0.015381871 -0.0084040845 0.0049381503 -0.004867207 0.019097516 -0.001842674 -0.02856594
0.042062145 0.029977283 -0.012017538 0.024245396 -0.013927876 -0.005808104 0.01838548 -0.019186815
0.0041677426 0.04243984 0.0117149325 0.03533149 0.022445159 0.022628747 0.03079962 0.009973569
-0.027307983 -0.006146878 -0.01586907 -0.02065461 0.0105707375 -0.026519503 0.008225205 -0.026357742
-0.021050364 0.006141331 0.0021200867 0.018209698 0.0046947594 0.018560683 -0.008304894 -0.025177028
-0.01607832 0.040387627 -0.0082630925 0.0027178542 0.015758289 -0.00045033946 0.02184403 -0.0020824284
0.02564188 -0.0009511694 0.0180032 0.0041770088 -0.000107617205 0.020016717 -0.021778457 0.00029133106
0.011553626 -0.022819608 0.011552456 -0.017799154 -0.023842847 0.004143632 -0.03101721 -0.0085874675
-0.010404493 -0.023141006 -0.003818945 -0.009915025 -0.026796242 0.008775635 -0.015267651 0.02226738
-0.029124146 0.014861987 -0.02782418 0.007143372 0.027486684 -0.023889098 0.030077491 -0.09498709
0.073033676 0.052874655 -0.051272314 0.029044399 0.015552184 -0.033856004 0.037857182 0.043833643
-0.006277697 0.001977469 0.020345217 0.020642733 0.022453003 0.056927916 0.013708193 -0.007675412
0.0118344575 0.022743126 -0.008624468 -0.010196962 -0.009725042 -0.006555066 0.005668307 -0.0014432595
0.023764458 0.025774268 0.027729265 0.0028948663 -0.026739566 0.0030828707 0.012024514 -0.019963589
0.017524498 0.008406927 0.024736743 -0.010790083 -0.0037017432 -0.022087751 0.017122215 -0.01575082
-0.03322059 -0.020781457 -0.015987815 0.010444624 0.017481638 0.018379154 7.9336206e-07 0.03525164
0.029484045 0.04539979 -0.0034254089 -0.0723722 -0.02772079 -0.0057674632 -0.030027274 0.0055831657
0.01815086 0.003320426 0.026782358 0.000749799 -0.020080188 -0.03967389 -0.018720062 -0.007033338
00000000: 359c b7bc 16b1 a53b 212c 5dbd 5154 a83c
00000010: 06a7 fc3a 12f1 02bd 19e7 9abc 21ea d5bb
00000020: b8e3 4e3c f1b2 25bc 4204 243d 702c 8bbc
00000030: 32b8 853a c709 c63c af62 8cbc 5855 8c3c
00000040: bf66 b0ba 10c7 67bc 91ed c43c 9373 b03c
00000050: e248 873b 9fb9 5f3d b27b 4a3d 5b96 893c
00000060: 7caa e83c 9e39 1cbc 1563 ea3c ae87 4bbc
00000070: 81bc 093d 99f0 0d3b 2f64 98bb b147 7b3c
00000080: 6955 c33c 6aed ceb9 e756 12bc 2f71 ba3b
00000090: 7af4 a53c e8ce 49bc 4ae9 09b9 3c06 0c3c
000000a0: e235 c83c 8733 d43c eb72 31bb e38b c7bb
000000b0: 00f0 7f3c 92da 443c 35e9 e539 3d19 123d
000000c0: e532 6e3c ed7d e9bc 61b2 afbb e15b d93c
000000d0: 0a8a e6bb 0865 b33c 5960 8bbc 016d 11bc
000000e0: f05e 9dbd f856 673d 0df8 89ba 690f 92bd
000000f0: d96f 5c3d b358 e33c 2af5 82bc 27ef 483c
00000100: 5488 10bc 4fb9 9bbc f6f3 d1bc e526 0fbc
00000110: 8621 963b cd54 15bc 543e 8d3c c2e5 05bd
00000120: 6c82 1e3c b590 543c 3975 b7bc 590a b33d
00000130: 75f3 383d 6945 aa3c 11eb c53c 4caa 203d
00000140: 2913 23bd 5823 a3bc d3d6 a4bc ef52 193c
00000150: 5327 9e3a 8e65 a43b 6dd3 663c cec1 cebc
00000160: b596 523b a5a1 a03c a918 e5bc 433c 35bc
00000170: 0cb1 a0bc 5ade be3b 9fa8 08bd 9a9a f1bc
00000180: 16b7 03bd 928c cebb d7a6 93bc b9bc b3bc
00000190: bd3b fd3c ed2f 3c3c eee9 12bb a18e d63c
000001a0: 4a25 78ba 8354 353c b71b b53b a60f 80bc
000001b0: bcb1 07bc ff72 87bc 6bd0 c1bc 33bb 993c
000001c0: cd5a 8ebc 3e04 7c3c 49b1 09bc 35d0 a13b
000001d0: 177d 9fbb 6572 9c3c e185 f1ba 1e03 eabc
000001e0: 5b49 2c3d eb92 f53c 35e5 44bc 489e c63c
000001f0: bf31 64bc e851 bebb 259d 963c ab2d 9dbc
00000200: 8f91 883b 66d5 2d3d fdef 3f3c c1b7 103d
00000210: e9de b73c ec5f b93c 7c4f fc3c 2e68 233c
00000220: feb4 dfbc c06b c9bb daff 81bc db33 a9bc
00000230: e330 2d3c 6e3f d9bc 03c3 063c 31ec d7bc
00000240: d071 acbc 383d c93b 27f1 0a3b 812c 953c
00000250: 7fd6 993b 930c 983c 4011 08bc 0e40 cebc
00000260: aeb6 83bc 7f6d 253d ec61 07bc 071e 323b
00000270: 8717 813c 8a1b ecb9 40f2 b23c 5a79 08bb
00000280: ec0e d23c e657 79ba 727b 933c 4adf 883b
00000290: 8cb0 e1b8 19fa a33c bc68 b2bc cbbd 9839
000002a0: 6b4b 3d3c 30f0 babc 8346 3d3c 88cf 91bc
000002b0: 1352 c3bc 4ec7 873b ce17 febc 73b2 0cbc
000002c0: 9b77 2abc 3592 bdbc 4447 7abb a172 22bc
000002d0: cb83 dbbc aec7 0f3c 2b25 7abc 156a b63c
000002e0: c395 eebc b17f 733c 89ef e3bc f312 ea3b
000002f0: c12b e13c 12b3 c3bc 1265 f63c 9788 c2bd
00000300: ae92 953d 1893 583d eb02 52bd 85ee ed3c
00000310: 96ce 7e3c 98ac 0abd 2210 1b3d e88a 333d
00000320: 24b5 cdbb 6d98 013b 03ab a63c f31a a93c
00000330: 5cef b73c 3f2d 693d 5498 603c 0682 fbbb
00000340: 50e5 413c cb4f ba3c a44d 0dbc 2911 27bc
00000350: c855 1fbc e1cb d6bb 35bd b93b c12b bdba
00000360: aead c23c 8f24 d33c 7c28 e33c ccb7 3d3b
00000370: ef0c dbbc fd09 4a3b 7802 453c ae8a a3bc
00000380: 898f 8f3c 35bd 093c b6a4 ca3c e3c8 30bc
00000390: f298 72bb 5ff1 b4bc e343 8c3c dd07 81bc
000003a0: 5012 08bd e03d aabc e1f8 82bc ee1f 2b3c
000003b0: a735 8f3c e18f 963c 6df7 5435 0664 103d
000003c0: 8688 f13c 21f5 393d d37c 60bb e037 94bd
000003d0: b616 e3bc fdfc bcbb c2fb f5bc fdf2 b63b
000003e0: 1db1 943c 819b 593b ad66 db3c 298e 443a
000003f0: 357f a4bc 1781 22bd d15a 99bc ea77 e6bb

net.10.weight f4 [64]
0.9782663 0.99594444 0.998258 0.98629695 0.98791355 0.9817322 1.0001404 1.0147396
1.0993383 1.002225 0.99124426 1.0011113 1.0052826 0.9873309 1.0032313 1.0057046
0.9984499 1.0025072 0.98738056 0.99619126 0.9959717 1.0667547 1.0085951 0.98294795
1.0166667 1.0106491 0.9902055 0.9923678 0.99210227 0.9791267 1.0044086 1.0041336
1.0060705 0.9972407 1.0079952 0.9795735 0.98962396 0.9737485 0.9765102 1.0089583
0.99771124 0.9908932 1.0190685 1.0210395 1.0365269 1.0031645 0.98117864 0.98646784
0.9834482 0.9998749 1.0100121 0.9861061 1.0208426 0.9939449 0.9983034 1.016236
1.022574 0.98565644 1.0004193 0.97237706 0.97630644 1.0012485 1.004028 1.0034058
00000000: a96f 7a3f 37f6 7e3f d68d 7f3f f57d 7c3f
00000010: e7e7 7c3f cd52 7b3f 9a04 803f fde2 813f
00000020: 1eb7 8c3f e948 803f 2fc2 7d3f 6a24 803f
00000030: 1aad 803f b8c1 7c3f e269 803f eeba 803f
00000040: 6a9a 7f3f 2852 803f f9c4 7c3f 6406 7f3f
00000050: 00f8 7e3f 6b8b 883f a519 813f 7aa2 7b3f
00000060: 2222 823f f35c 813f 1c7e 7d3f d10b 7e3f
00000070: 6afa 7d3f 0ca8 7a3f 7690 803f 7387 803f
00000080: ebc6 803f 2b4b 7f3f fd05 813f 54c5 7a3f
00000090: ff57 7d3f 9547 793f 93fc 793f 8c25 813f
000000a0: 016a 7f3f 2dab 7d3f d670 823f 6cb1 823f
000000b0: eaac 843f b267 803f 862e 7b3f 2889 7c3f
000000c0: 43c3 7b3f cdf7 7f3f 1448 813f 7371 7c3f
000000d0: f8aa 823f 2c73 7e3f d090 7f3f 0514 823f
000000e0: b4e3 823f fb53 7c3f bd0d 803f b4ed 783f
000000f0: 38ef 793f e928 803f fd83 803f 9a6f 803f

net.10.bias f4 [64]
-0.048620835 -0.034469493 -0.007565185 0.0024062733 0.008740545 -0.014113467 -0.00479798 0.01839401
-0.026126025 0.019242657 -0.0018813659 0.00063694135 -0.024197444 -0.0036571254 0.00654055 -0.058460753
-0.026998425 0.008277403 -0.00866421 0.013028663 -0.009461869 -0.1897441 -0.092192136 0.0016824395
0.041959636 -0.1309052 0.017418768 -0.060186442 -0.030029325 -0.008611967 0.0155954445 -0.04174389
0.005868208 -0.0073259515 0.024991184 0.011645694 0.0067991074 -0.0599246 -0.024115898 0.0063047386
0.008280425 -0.0185138 -0.010914867 -0.040445026 -0.12276647 0.030838186 -0.030691644 -0.009288329
-0.01694549 0.037499983 -0.067567155 0.011643773 -0.064768046 -0.0034557383 0.0015807124 0.0062743314
-0.02785413 0.029037587 -0.0030305744 -0.045361403 -0.009019079 0.032762084 -0.01667999 0.00037722453
00000000: a426 47bd e22f 0dbd 5fe5 f7bb 91b2 1d3b
00000010: 8134 0f3c 2c3c 67bc 6038 9dbb 09af 963c
00000020: 3f06 d6bc c7a2 9d3c 2a98 f6ba 69f8 263a
00000030: b839 c6bc 62ac 6fbb 1c52 d63b 8b74 6fbd
00000040: cd2b ddbc f29d 073c 55f4 0dbc 2c76 553c
00000050: f405 1bbc 474c 42be 3bcf bcbd 4d85 dc3a
00000060: dedd 2b3d 030c 06be ceb1 8e3c 0f86 76bd
00000070: 0f00 f6bc 3519 0dbc 0984 7f3c a4fb 2abd
00000080: 194a c03b 890e f0bb 50ba cc3c 95cd 3e3c
00000090: 0ccb de3b 7f73 75bd b48e c5bc fb97 ce3b
000000a0: 9faa 073c 41aa 97bc 45d4 32bc afa9 25bd
000000b0: fd6c fbbd 5da0 fc3c 0b6d fbbc 132e 18bc
000000c0: 45d1 8abc 9599 193d a660 8abd 86c5 3e3c
000000d0: 1ca5 84bd ab79 62bb e82f cf3a e898 cd3b
000000e0: 582e e4bc 3ce0 ed3c 9a9c 46bb e1cc 39bd
000000f0: c2c4 13bc 8931 063d 79a4 88bc 38c6 c539
