src/results/weights/DenoisingCAE_STL10.pth (torch, 453810 bytes, 52 tensors)

encoder.0.0.weight f4 [16, 3, 3, 3]
000000 6c 1a 3c 3d aa 05 eb 3c 07 89 4a 3d b2 0a 77 3d
       0.045923635 0.028689224 0.049447086 0.060312934
000010 d6 83 01 3c 99 45 98 3d a8 9b 05 3e 45 bf 98 3d
       0.007904967 0.0743515 0.1304766 0.07458357
000020 39 13 ce bd bd ff 25 3d e7 00 51 bc 2a ba 8f bd
       -0.1006226 0.040527094 -0.012756563 -0.0701793
000030 cc de 98 bd 2d e4 39 be 43 df 99 bd 1f 3e 01 3c
       -0.0746437 -0.18153448 -0.07513287 0.007888346
000040 1c e7 42 be ba 11 16 be 05 c5 2c bd 48 09 fe bd
       -0.19033474 -0.146552 -0.04218008 -0.12404114
000050 e0 09 02 3d c1 67 39 be a0 eb b5 be 1b 5f 07 be
       0.0317477 -0.18105985 -0.3553133 -0.13219874
000060 aa 00 a8 bd 00 73 a8 bd 95 88 8d bd 7c 4b 35 be
       -0.08203252 -0.082250595 -0.069108166 -0.17704576
000070 3d 08 28 be a5 a6 1a 3e f4 d4 15 be 43 ac 48 bb
       -0.16409393 0.15102632 -0.14632016 -0.0030620254
000080 c6 39 53 3d c5 84 45 3e c5 8f 27 be 15 76 5a 3e
       0.05156877 0.19288929 -0.16363437 0.21334107
000090 d8 ad 99 3d 53 7a 4c 3d c8 60 b8 bd 68 15 07 be
       0.07503861 0.049921345 -0.090028346 -0.1319176
0000a0 5f db 0a be 6c b4 52 3d 5d aa 31 3c 87 d2 c2 3d
       -0.13560246 0.051441595 0.01084384 0.09512811
0000b0 2d 86 35 bd 8b 38 11 be 83 9c bc 3c cf 0b 11 3e
       -0.044317413 -0.14181726 0.02302385 0.14164661
0000c0 f9 15 df 3d a2 12 23 3e 69 05 8b 3c 32 46 b3 3c
       0.10892863 0.15925077 0.016970353 0.021884058
0000d0 4a 88 06 3e 24 15 0a be 45 41 fc bd d4 25 63 3c
       0.13137928 -0.13484627 -0.12317137 0.013863999
0000e0 e7 67 6d bb d2 3e 3f bd 4e 4b 38 3e 98 d7 d2 3d
       -0.003622526 -0.04669077 0.17997476 0.102950275
0000f0 e8 27 2a 3c cb fd 04 3d ee d9 8c 3d de 63 f5 bc
       0.010385491 0.0324686 0.06877504 -0.029954847
000100 41 10 a0 3c 7b 70 fc bd f2 d5 64 ba c0 7f 00 3e
       0.019539 -0.123261414 -0.000872939 0.12548733
000110 86 1e 22 bb 75 bd e7 bd 5e 0c e2 3c ac 20 ac 3d
       -0.0024737432 -0.11315433 0.027593788 0.08404669
000120 53 8c 3f be 71 5c 3f be 12 40 18 be b3 25 d9 bd
       -0.18705873 -0.18687607 -0.14868191 -0.10602894
000130 c6 a7 9a 3d 91 36 70 bc 13 52 2a be 86 94 f6 bd
       0.075515315 -0.014661447 -0.16632871 -0.12040047
000140 cc 43 f4 bd e1 84 43 ba 7f 44 83 bd 40 71 b9 bd
       -0.11926994 -0.000745846 -0.06409549 -0.09054804
000150 a8 17 d7 bd 62 bc 47 be e4 7e eb bd a2 9b be bc
       -0.10502559 -0.19505456 -0.11498812 -0.02326757
000160 57 3e 89 be 15 6c f2 3c 78 7f 8e bd 65 d2 23 3d
       -0.26805374 0.029592553 -0.069579065 0.03999557
000170 58 f6 44 3c ad 1c db bd d1 af b3 bd d6 35 c0 bd
       0.012021624 -0.10698829 -0.08773769 -0.093852684
000180 f0 41 e3 bc e8 84 38 be ff 32 a4 bd a1 08 0d bd
       -0.027741402 -0.1801945 -0.08017539 -0.034432057
000190 79 a7 7c bd 2e a7 81 bc eb 97 63 bc 20 cf 9f bd
       -0.061683152 -0.015826788 -0.013891201 -0.07803178
0001a0 6d 32 c8 bc 69 bb 68 3d 5a 65 1a be 15 c1 b1 bd
       -0.024438107 0.056819353 -0.15077725 -0.086794056
0001b0 3b 51 82 3c b8 12 0e be 6e ac bc bd e6 9f 18 be
       0.015907874 -0.13874328 -0.09212576 -0.14904746
0001c0 b4 66 6c be 31 ee 12 be 9e 2e 89 bd 4f 7a 26 be
       -0.23086053 -0.14348675 -0.06698345 -0.16257595
0001d0 1c 80 84 be d7 03 4e bd ff 9f 7b be b9 55 af bc
       -0.2587899 -0.05029663 -0.24572752 -0.02140318
0001e0 29 27 33 bd a8 81 5a be b3 7e 47 bd 80 f6 1e bd
       -0.043738518 -0.21338522 -0.048704814 -0.0388093
0001f0 16 4d 16 bd 88 66 b4 bd 15 14 5b 3c 6f d5 fb bd
       -0.03669461 -0.08808619 0.013371487 -0.122965686
000200 7e b4 d0 bc 8f bb 51 bd 9c 73 f9 bd c0 1c d8 bd
       -0.02547669 -0.05120426 -0.12180254 -0.105523586
000210 70 00 88 3c 7a cd 0f 3d e8 03 b3 bd 46 b8 01 3e
       0.016601771 0.035108067 -0.087409794 0.12667951
000220 ea 10 85 3e a3 cb 0c 3e 42 b7 98 3d 7a 03 67 3e
       0.25989467 0.13749556 0.07456829 0.2255992
000230 16 50 63 3e ce 55 49 bd 60 93 df bc fe 34 63 bc
       0.22198519 -0.049154095 -0.027291954 -0.013867615
000240 ad 3c 8d 3d fa 51 2f 3e 36 6c f4 3d b0 80 a2 3d
       0.068963386 0.17121115 0.11934702 0.079347014
000250 ff 08 12 3e b9 e9 5b 3e 93 eb 3c bd 09 8a a8 bc
       0.14261244 0.21475877 -0.0461231 -0.020573633
000260 03 9c e9 bd 0e 94 0f 3d f4 2b e9 3d 6a f1 8f 3d
       -0.1140671 0.035053305 0.113853365 0.07028468
000270 15 3f e4 3d 0f 9e e7 3c c8 b7 ae 3b ab d6 b0 bd
       0.111448444 0.02827361 0.005331967 -0.08634695
000280 b4 94 ac 3d 7f 9b ac 3d 5a 03 8b bd 36 dc 4a bd
       0.084268 0.08428096 -0.06787749 -0.049526416
000290 8d 72 39 3d fa 34 80 bd 37 71 cc bc 5a 1c 64 3d
       0.04527526 -0.062601045 -0.024956329 0.0556911
0002a0 0b 38 df bd 6f ae d2 3c 52 9d 74 3d 8f c8 22 be
       -0.10899361 0.025717942 0.059720345 -0.1589682
0002b0 e8 f4 5c bd a2 ad ad 3c 2e 47 22 3b 9a 98 6c 3d
       -0.0539445 0.021200959 0.0024761665 0.05776272
0002c0 8b a6 f5 3d a3 80 9b 3d f7 39 84 3d f4 7c e9 3d
       0.11994656 0.07592895 0.064563684 0.11400786
0002d0 d8 3c b9 3d 55 6c f8 3d 32 0c 8b 3d ab 91 fa 3c
       0.09044808 0.12130038 0.067894354 0.030587038
0002e0 ef c1 80 3e ef f4 29 3e ea 1c 17 bd 1d 78 65 3e
       0.2514796 0.16597341 -0.03689281 0.22409101
0002f0 89 dd 37 3e e0 56 c2 bb d1 c8 d4 3c e4 50 ef 3c
       0.17955603 -0.0059307665 0.025974663 0.029213376
000300 7a 2a 13 3e 1c bb dc 3d b4 68 6f bd 68 c1 27 bc
       0.14371672 0.10777876 -0.058449462 -0.010238983
000310 61 ca 6c 3d fc a4 84 3d 95 5e 0e 3d 0f 85 9c 3d
       0.05781019 0.06476781 0.03475817 0.076425664
000320 c1 85 06 bc 95 8e b1 3d 9b dd 4c 3e f6 ae 81 3b
       -0.0082106 0.086697735 0.20006411 0.0039576245
000330 ad 58 bc 3d 10 30 d4 3d cb a1 d1 3c 8b 47 d0 bc
       0.09196601 0.1036073 0.025589844 -0.02542474
000340 0f 6e bd 3d b2 90 42 3d 3f 2c 31 3e 6f c0 8a 3e
       0.09249508 0.047501273 0.17302035 0.2709994
000350 9f ad da 3d c1 07 29 3e ff 5d 42 3e 32 57 55 3d
       0.10677647 0.16506864 0.18981169 0.05208511
000360 1b 27 5a 3d 88 e1 21 3e 8e 67 1c bb 5a f3 9a 3d
       0.05325995 0.1580869 -0.0023865434 0.07565947
000370 67 b8 a3 3e 40 95 65 3e c1 76 60 3d a7 8d 2c 3e
       0.31976625 0.22420216 0.054800753 0.16850911
000380 be e6 31 3e 31 5b 3a 3d 89 00 1e 3e f5 58 aa bd
       0.17373177 0.045497123 0.15429892 -0.083177485
000390 63 c1 cd 3d 20 95 b7 3d 8b 96 ca bc 3e 1d da 3d
       0.10046651 0.0896399 -0.024729988 0.10650109
0003a0 34 66 1e 3e 90 6f a4 3d 7b 73 f0 3c d2 0f 16 3e
       0.15468675 0.08029091 0.02935194 0.14654472
0003b0 5d af b6 bc 13 e3 8c 3d f6 a5 14 3d ea 84 ff 3d
       -0.022300417 0.068792485 0.036291085 0.12476523
0003c0 04 8a 60 bd 80 85 45 bd fa 82 c5 3c 05 8c f9 bd
       -0.054819122 -0.04822302 0.024110306 -0.1218491
0003d0 38 71 4a bd 0c 89 06 3d 01 c8 16 be 03 74 39 be
       -0.04942438 0.03284554 -0.14724733 -0.18110661
0003e0 a6 c9 b9 bd 0c c0 48 bd 23 c7 47 3d 21 c2 ac 3d
       -0.090716645 -0.049011275 0.048773896 0.08435465
0003f0 43 6f 8f bd e0 b3 42 be 15 d5 39 3d a9 ab 96 bd
       -0.07003643 -0.1901393 0.045369226 -0.0735696

encoder.0.1.weight f4 [16]
000000 8d e7 77 3f 9f e0 5c 3f c0 9e 6d 3f af 51 81 3f
       0.96837693 0.86280245 0.9282036 1.0103053
000010 16 24 85 3f ac 10 81 3f 63 85 7d 3f 88 77 81 3f
       1.0401638 1.0083213 0.99031657 1.0114603
000020 4b 26 83 3f 55 2b 80 3f af 8b 5e 3f 9b af 62 3f
       1.0246061 1.0013224 0.8693189 0.885492
000030 7f b3 79 3f e9 97 71 3f 82 76 87 3f 04 a7 74 3f
       0.97539514 0.9437242 1.0583041 0.95567346

encoder.0.1.bias f4 [16]
000000 7e 81 aa bb 2e f7 a0 bc 95 58 fc 3c e5 0f fb 3d
       -0.005203425 -0.019649114 0.030803958 0.12258891
000010 1a 66 e3 3d 5b 42 4d 3e 91 e3 31 3e 6c 39 4b 3e
       0.11103459 0.20044844 0.17371966 0.19846123
000020 a9 ea b3 3d 53 aa e1 3d cd c8 4e bd 76 12 ac bc
       0.08784992 0.11018815 -0.050484467 -0.021004897
000030 4e 3b ce 3d 75 db 7e 3c 43 f9 e4 3d 0a 75 b0 3d
       0.10069905 0.015555252 0.111803554 0.086160734

encoder.0.1.running_mean f4 [16]
000000 25 a8 19 bf f4 94 8a 3d f5 67 9e be ff 2f 56 bf
       -0.60022193 0.06766692 -0.30938688 -0.83666986
000010 04 1a 90 bf 62 3a 6b 3f 0f 65 08 3f dd c1 6a 3f
       -1.1257939 0.9188596 0.53279203 0.9170206
000020 12 90 7d 3f 3e 84 43 bf 87 41 bd be 55 4e 27 bf
       0.9904796 -0.7637366 -0.36964056 -0.653539
000030 92 c1 58 3f 0e f6 cc 3e 67 b0 65 3f c7 37 04 3f
       0.84670365 0.40031475 0.89722294 0.5164761

encoder.0.1.running_var f4 [16]
000000 7c f0 ba 3d 50 7f 35 3d e6 e6 56 3d af 3a e0 3d
       0.091279 0.044310868 0.052466296 0.10948693
000010 4f 5e 41 3e d6 7e 17 3e d7 11 99 3d 4a 34 0d 3e
       0.18883632 0.14794478 0.07474106 0.13789478
000020 ea f4 1e 3e aa 04 cb 3d c2 57 92 3d 4d 5d c7 3d
       0.15523115 0.09912999 0.07145645 0.097345926
000030 4d ca 03 3e af f1 94 3d 9e bc fc 3d 2c e1 83 3d
       0.1287014 0.0727266 0.123406634 0.064394325

encoder.0.3.weight f4 [16, 16, 3, 3]
000000 25 0d da bd 51 98 a2 bd 99 42 cd 3b 9d f7 95 3c
       -0.10647038 -0.07939208 0.0062640426 0.018306548
000010 1a 9b be bd 73 e5 60 bd 47 b3 01 bd 60 b5 1c bd
       -0.09306927 -0.05490632 -0.031665113 -0.03825891
000020 01 61 93 bd 23 44 1b bd fd b1 f0 bc 39 c8 ca bc
       -0.071962364 -0.037906777 -0.029381746 -0.024753677
000030 be 35 90 bc de 73 8a bd 91 8f 3e bd 4f 9e 66 3c
       -0.017603751 -0.06760381 -0.046523634 0.01407583
000040 8d c9 3e bb 41 09 88 bd e9 3d bc bc 0a c1 2f bd
       -0.0029111833 -0.0664239 -0.02297874 -0.042908706
000050 17 e5 18 bd b6 47 af 3c d6 b0 8e bb 3b df b8 bc
       -0.037327852 0.0213965 -0.0043545766 -0.022567382
000060 54 d0 69 3d 91 d8 00 bc 7d ff 23 3d 77 7a 77 bd
       0.057083443 -0.007864133 0.040038574 -0.060419526
000070 f7 ea 89 bd 29 0d 06 bd 02 34 2d 3d ba f5 ae ba
       -0.06734269 -0.032727394 0.042285927 -0.0013348379
000080 6e 84 b2 3b 28 2e 11 bd be 6d 38 3d 7b 25 0d 3c
       0.0054479158 -0.03544441 0.045026533 0.008614893
000090 c3 bb a2 bd bc c2 ee bd ea f7 57 bd 51 66 a2 bd
       -0.07945969 -0.116582364 -0.052726664 -0.079296716
0000a0 b2 45 28 3d 7d ac 8c bd c1 76 59 3d 24 e5 4e 3d
       0.04108209 -0.06868837 0.05309177 0.050511494
0000b0 f7 3f 53 3b dc 71 62 bd a7 bf 97 bc de 80 38 bd
       0.003223417 -0.055284366 -0.018524004 -0.045044772
0000c0 c1 86 51 bd 1d 21 b2 bd aa 77 c2 3c e5 e4 1b bd
       -0.051153902 -0.08697722 0.0237387 -0.038060088
0000d0 7f 66 4c bd 7d 86 6e bd 0e 65 ff bc bb df 65 3b
       -0.049902435 -0.058233727 -0.031176116 0.003507598
0000e0 3e a1 09 bd f5 ae 98 bc 7a 84 d4 bd aa e1 2f bd
       -0.03360104 -0.018638114 -0.103768304 -0.04293982
0000f0 74 cf 0d bd cb 1e 55 bd ab 05 82 3c d7 86 5f bd
       -0.03462167 -0.05203132 0.015871843 -0.054571953
000100 b0 48 11 3d 9e 49 3a 3d f9 44 a0 bc 7b 69 aa bd
       0.03546971 0.045480363 -0.019564139 -0.083209
000110 1d 0f b4 3c ca 61 c1 bd 61 e7 f7 bc 01 93 32 bd
       0.021979863 -0.0944248 -0.030261697 -0.043597225
000120 3e f4 96 bd 5d 45 2b bc ab 9e 6b bd 77 0d c0 bc
       -0.07370804 -0.010453549 -0.057524364 -0.02344392
000130 90 9b 90 bd 47 4e b5 bd 09 f9 65 bd ae 16 47 bd
       -0.07060921 -0.08852821 -0.0561457 -0.048605613
000140 b3 5f c5 bd 3e ca 49 bd a2 9f 00 bd c7 c3 1a bc
       -0.09637394 -0.04926514 -0.031402238 -0.009446091
000150 e0 50 6d bd f6 13 99 3c 7a 55 9e 3c cb 08 44 3a
       -0.057938457 0.018686276 0.019327868 0.0007478117
000160 7c c3 06 bd a4 6e 18 3d 3d 19 dd bc c2 2a 57 3b
       -0.032901272 0.03721489 -0.026989574 0.0032831882
000170 30 a8 9f 3b f0 29 82 bc fd f7 0e 3d 08 29 8a bd
       0.0048723444 -0.015889138 0.03490447 -0.06746107
000180 b1 1e fc 3c 22 03 3a bb c2 0d 16 3d 77 af a4 3a
       0.030776354 -0.0028383215 0.036634214 0.00125645
000190 2a a0 0f bc 97 aa 38 3c 6f 78 00 3d 20 a4 0c bd
       -0.008766213 0.011271141 0.031364854 -0.03433621
0001a0 39 4c 2f bc 64 b3 2f bd 55 85 cf bc 91 a4 7f 3c
       -0.010699325 -0.04289569 -0.025332132 0.0156032005
0001b0 c4 af 31 bd 6c eb 79 bd 5c e2 e4 3c 69 d4 ae bd
       -0.043380514 -0.06101553 0.027939968 -0.08536608
0001c0 16 f9 92 3c c7 b4 0a bd de 5e 39 3c 04 3b 18 bd
       0.017941039 -0.03386381 0.011314122 -0.037165657
0001d0 14 55 af bd 56 8e de bb a1 e0 c4 37 61 ed 87 bd
       -0.08561149 -0.00679187 2.3469622e-05 -0.06637073
0001e0 76 67 2f 3c 0a 6d 62 bd cb c9 63 bd 87 94 72 3b
       0.010705819 -0.05527977 -0.055612367 0.0037014799
0001f0 56 3e 09 3c f5 9d ad bc 4c f6 53 bb 27 b4 04 bd
       0.008376678 -0.021193484 -0.003234285 -0.03239837
000200 c5 68 c8 bd 3b 66 e2 bd 8c 05 d7 bd 86 61 05 be
       -0.09785608 -0.11054655 -0.10499105 -0.13025483
000210 1e c8 a6 bd f5 72 da bd 3c c8 06 bc 18 87 1e 3d
       -0.08143638 -0.106664576 -0.0082264505 0.038703054
000220 65 1f a1 bd 0c af 19 3d 6c ff 57 3c f5 b7 50 3d
       -0.07867316 0.037520453 0.013183456 0.050956685
000230 02 11 70 bc a1 e5 90 bd 0e 74 12 bd c3 53 2e bd
       -0.0146524925 -0.07075048 -0.03575521 -0.04256035
000240 8b 79 0e 3d 8a 4d 5b bc f3 22 37 3c b6 70 fb 3b
       0.03478388 -0.013385186 0.011177766 0.0076733483
000250 28 bd 8e ba 08 2b 99 3c 0b 02 ec bd c6 a0 8e bd
       -0.0010890113 0.018697277 -0.11523827 -0.06964259
000260 3f 3f 66 bc 22 b7 c7 3c 2f 7c 93 3c 40 ff ce bc
       -0.014053165 0.024379317 0.018003551 -0.025268197
000270 c2 64 0a 3d 70 de bf 3a c8 7c 90 bc 85 df f6 3b
       0.033787496 0.0014638435 -0.017637625 0.00753397
000280 6d 34 2d 3d 8f 81 31 bd 8b 11 88 3c 6d 27 3b bd
       0.042286325 -0.043336447 0.016609928 -0.045691896
000290 3a f8 4c 3c bb 54 2a 3d 0e a8 01 bc 7b 10 02 bd
       0.012510354 0.04158471 -0.0079136025 -0.031754
0002a0 32 d7 57 bc 0c 51 6d bc 51 71 1e 3c cf 41 48 3d
       -0.013173865 -0.014484655 0.009670571 0.048890885
0002b0 04 95 49 3d 78 90 a6 3b 55 d9 84 bd d2 b5 08 3d
       0.049214378 0.00508314 -0.06486765 0.033376522
0002c0 88 f7 42 3d 36 01 d9 bd 20 f3 ce bd 2b f6 11 3d
       0.047599345 -0.10595934 -0.10104966 0.035635155
0002d0 c5 bd 8e 3d 89 cf 5d 3d a8 67 16 3d ba 4e 9c 3d
       0.069697894 0.054153 0.036719948 0.076322034
0002e0 a9 15 89 3d 7e f1 11 3d 55 73 ac bd f0 ea c4 bc
       0.066935845 0.035630696 -0.08420435 -0.024037808
0002f0 1a 4f 21 ba 99 b0 60 3c 41 27 84 bd 08 64 e1 bd
       -0.00061534496 0.013713979 -0.064527996 -0.110054076
000300 4e 70 6e 3d 4d df d6 3c 6c d3 4c bd 55 58 b3 3c
       0.05821257 0.026229525 -0.050006315 0.021892706
000310 08 b4 cb 3d e8 2b 02 3d ef c1 95 3d ab c7 0e 3e
       0.099464476 0.031780154 0.073123805 0.13943355
000320 1c 54 4d 3d 6b 5d a2 3c f1 33 eb 3d 2b 85 bc 3d
       0.05012904 0.019819936 0.114845164 0.09205087
000330 8e 14 d7 3d 41 cb 8a 3d a0 a6 ed 3c 07 30 8e bd
       0.10501967 0.06777049 0.029010117 -0.06942754
000340 fc 30 bc bc c4 81 93 3d b3 15 4d bd dc ed be 3c
       -0.022972576 0.07202485 -0.050069522 0.02330678
000350 77 97 ab 3d 8f 81 9b bc d4 75 d5 3d 09 5e 36 3d
       0.08378499 -0.018982677 0.104228646 0.044523273
000360 88 f4 68 bd b3 9c 3a 3d f6 0b 86 bd 28 87 5b 3c
       -0.05687383 0.045559596 -0.0654525 0.013398923
000370 84 65 6d bc c5 d4 7d bd 19 47 8e 3c b0 ed b1 3b
       -0.014489535 -0.06197049 0.017367886 0.005429946
000380 97 a1 da bc da 7b 88 3c 5b 41 96 3d d0 1f f6 ba
       -0.02668838 0.01666062 0.07336684 -0.0018777791
000390 b2 ab a4 3d 8b c2 20 bc c3 ba d7 3d 2c 5f f0 3c
       0.08040561 -0.009812008 0.10533669 0.029342256
0003a0 4a 75 dc bd b7 59 ed 3a 4b 35 03 bb ab b0 ab ba
       -0.107645586 0.0018108402 -0.0020020779 -0.0013098916
0003b0 d7 0c 07 3c 7d 5d 00 3c fa 39 3d 3c 1e 83 1c 3d
       0.008242807 0.007834789 0.011549467 0.03821098
0003c0 20 65 b3 bc 9a 4a a5 3a 87 9a 36 3d 03 2b a5 bc
       -0.021898806 0.0012610734 0.044580963 -0.020162111
0003d0 e2 a4 22 3d 6c b0 5c bb 8c 29 3e 3d 95 99 6b 3d
       0.039708026 -0.0033674492 0.04642634 0.057519514
0003e0 e2 1a bb 3d 50 1b 10 bd a3 b0 7e bd 9f d9 83 3c
       0.09135987 -0.035182297 -0.062180173 0.01609498
0003f0 88 cc 50 3d 15 f8 09 3c 77 20 9e bd 1d 04 4d 3d
       0.050976306 0.008420964 -0.07721036 0.05005275

encoder.0.4.weight f4 [16]
000000 d0 a0 7d 3f fe c8 7d 3f 4d 84 81 3f 16 d8 7d 3f
       0.99073505 0.99134815 1.01185 0.99157846
000010 9d 87 76 3f 8b 2d 83 3f 1b 3a 7f 3f 39 6a 7c 3f
       0.9630068 1.0248274 0.99698037 0.9859958
000020 fd 6d 80 3f 09 0c 81 3f 0b 01 82 3f 39 3a 81 3f
       1.0033566 1.0081798 1.0156568 1.0095893
000030 b6 ae 7c 3f 2d 74 72 3f 4b 79 81 3f 71 2e 80 3f
       0.9870409 0.9470852 1.0115141 1.0014173

encoder.0.4.bias f4 [16]
000000 31 dc 44 bc a0 94 c5 3c dd ad ae bb 67 95 63 3d
       -0.012015388 0.024118721 -0.0053307847 0.055562403
000010 ca 06 85 3c 9f 1a e6 3d d0 44 b3 3d 7f d5 7e 3a
       0.016238589 0.11235546 0.08753359 0.00097211445
000020 d0 df 55 3d 46 fc 3b 3d 04 fd ad 3d 44 0a c4 3d
       0.052215397 0.045894884 0.084955245 0.095722705
000030 14 75 17 3d 47 28 c5 bc 06 20 d6 3d c1 a9 8f 3c
       0.03697689 -0.024067057 0.10455327 0.017537

encoder.0.4.running_mean f4 [16]
000000 c9 15 e3 bf 99 67 34 3f d1 0e 35 bf ec 2f 2d 3f
       -1.7741023 0.7047058 -0.70725733 0.6765125
000010 22 64 04 3f 44 09 ad 3e ff 68 de 3e df d6 23 bf
       0.5171529 0.33796132 0.4343948 -0.6399974
000020 03 23 22 3f 8a e8 7d 3f 4d 1f 51 bf eb b5 1c 3e
       0.63334674 0.9918295 -0.81688386 0.15303771
000030 52 95 06 3b 18 10 1b bf af fd 83 3e 55 b1 d4 3e
       0.002053578 -0.6057143 0.25779483 0.41541544

encoder.0.4.running_var f4 [16]
000000 d4 d2 97 3f 56 b6 d1 3e 86 68 c6 3f ac 04 32 3f
       1.1861215 0.40959424 1.5500648 0.6953838
000010 8d 2d 18 3f 4e f2 d2 3e 06 3a d8 3e f8 6e a3 3e
       0.59444505 0.4120049 0.42231768 0.319206
000020 57 70 f5 3e 11 86 d1 3f 4a 59 a0 3f 2b 43 04 3f
       0.4793727 1.6369039 1.2527249 0.5166499
000030 bd 9f 58 3f e6 46 99 3f 24 a7 d8 3e df 6a 82 3f
       0.8461874 1.1974761 0.42315018 1.0188864

encoder.1.0.weight f4 [32, 16, 3, 3]
000000 1d 2e 3f bd 25 0b 04 bd 31 63 04 bc 4b a8 4e 3c
       -0.046674836 -0.03223719 -0.00808029 0.012613366
000010 00 ed a4 bd b7 94 bd bc da 01 aa 3d 98 6f 98 bd
       -0.08053017 -0.023142202 0.083011344 -0.0744316
000020 05 e3 29 bc e1 9c 5b 3d d2 92 d3 3c de 81 cd 3c
       -0.010369067 0.05361641 0.025826845 0.02508634
000030 db de 3b 3d e0 d6 0c 3d af 0e 27 3d 90 e5 0d 3d
       0.04586683 0.03438461 0.040785488 0.034642756
000040 5a d8 71 3d bf 4d 2e 3d 25 69 0b bc 53 3d 35 bd
       0.05904422 0.042554613 -0.008508955 -0.044247936
000050 4c 69 1c bd 37 d0 98 bb 27 4a 2c 3d 09 24 8f bc
       -0.038186356 -0.004663493 0.042062905 -0.017473238
000060 a7 4e 8a 3d 02 47 8c bd ce 75 70 3d e1 50 53 3c
       0.06753283 -0.06849481 0.058706097 0.012897701
000070 04 78 2b bc ca 2d 67 bd 1c 8a 25 bd 14 89 14 3d
       -0.010465626 -0.056440152 -0.040414914 0.03626354
000080 b4 37 82 3d 7b f1 4c bd fa 47 69 3d fd 64 df 3c
       0.06358281 -0.05003498 0.056953408 0.027269835
000090 93 32 f6 b9 97 fa 15 3d 87 f1 09 3d 66 84 e8 3d
       -0.00046958457 0.036615934 0.033677604 0.11353378
0000a0 99 a4 e1 b9 6d 8f 57 3c 97 f8 74 3b 8e 79 61 3d
       -0.0004303798 0.013156754 0.0037379616 0.055047564
0000b0 13 69 f7 bc e5 93 4f 3d 3c 92 67 bd 1b cc 84 bd
       -0.03020147 0.050678153 -0.056535944 -0.064842425
0000c0 b5 09 88 bd 4c 64 55 bd f3 f2 89 bd ee 7a 89 bb
       -0.066424765 -0.052097604 -0.06735792 -0.0041955626
0000d0 80 ee 3a bd df 9c ec bd 66 7c 3f 3d 91 72 f2 3b
       -0.045637608 -0.11553358 0.046749495 0.0073989113
0000e0 50 27 08 3d 7c 25 e8 3c a1 d1 23 3d 9b 64 5e 3c
       0.033240616 0.028338186 0.03999484 0.013573791
0000f0 54 ce d8 bc f3 3c ce 3c 74 94 13 3d c7 df 9f 3c
       -0.026465572 0.025175547 0.036030248 0.019515885
000100 60 02 a8 bb 8c 05 25 3b 43 b7 43 3d ea 90 e9 bc
       -0.0051272362 0.0025180308 0.047782194 -0.028511483
000110 fb 65 9c 3c 20 7a 42 bd b8 86 64 bd bc e9 10 3c
       0.019091597 -0.04747975 -0.05579254 0.008844789
000120 c6 a4 35 bd f3 fa 64 bd 54 9e 46 3d 0b 14 95 bd
       -0.044346593 -0.055903386 0.048490837 -0.072792135
000130 0d 5b 7a bd cb b3 2e 3d 32 91 da 3c 82 58 73 bd
       -0.06112199 0.042651933 0.026680563 -0.05941058
000140 67 48 80 bd 66 09 e7 3c 5d 30 28 3d 1e 33 06 bd
       -0.0626381 0.028202724 0.041061748 -0.032763593
000150 99 f5 73 3c c3 1b dc 3d 15 62 04 3e f7 a2 8f 3d
       0.014890098 0.10747483 0.1292804 0.07013505
000160 c6 5f 7c 3d 40 c1 61 3d 47 b8 d6 bb ba a2 30 3c
       0.061614774 0.05511594 -0.0065527293 0.010780985
000170 55 c4 03 bc 89 f4 59 bc 19 c1 9c 3d 89 56 40 3d
       -0.008042415 -0.013302931 0.07654018 0.046957526
000180 20 a4 19 3c ac da 03 3e 48 c8 85 3d 9a ea 25 bd
       0.009377509 0.12876385 0.06532341 -0.040506937
000190 5d 25 27 37 71 10 03 bc 88 03 58 3d ef c7 7b 3d
       9.962675e-06 -0.007999525 0.052737743 0.06146997
0001a0 17 88 c5 bd da 3d b4 bc 61 43 53 3d 1d 5c 99 bd
       -0.09645098 -0.02200215 0.05157793 -0.07488272
0001b0 a9 e8 bd bd 7a 9e 72 3d 8e 80 82 bd 86 51 2a bd
       -0.09272892 0.059233166 -0.06372176 -0.041581653
0001c0 ce 81 11 3c a5 71 37 bd eb b4 87 3c 04 0a 50 bc
       0.0088810455 -0.044786114 0.01656576 -0.0126977
0001d0 15 66 ba 3d b1 2d 54 bd 8c 5f 92 bd 2d 5c 4d bd
       0.09101502 -0.051801387 -0.0714713 -0.050136734
0001e0 ee ab aa 3c 61 49 58 3d e4 c7 be bc bd 12 aa bc
       0.020833936 0.052804355 -0.023288675 -0.020760888
0001f0 e4 ad e4 bc 37 8d 50 bd 8f 1e d6 bd 81 e4 86 bd
       -0.027914949 -0.050915923 -0.10455047 -0.065865524
000200 7d ff 8a bd 4d 5f 9a bd 33 9e 67 bd 3e 45 8e 3c
       -0.06787012 -0.075377084 -0.056547355 0.017367002
000210 e7 ad 60 bd a3 77 d8 bc d8 90 c9 bd e2 84 85 ba
       -0.054853346 -0.026424235 -0.0984208 -0.0010186697
000220 74 e1 10 bd 3b 42 6c 3c c4 fa c2 bc c6 c1 cb bc
       -0.03537126 0.014420087 -0.023801215 -0.024872672
000230 c5 1b 2d 3d 95 cf 5b bd c3 93 2a 3d 2f 4d d2 3c
       0.04226281 -0.053664763 0.041644823 0.02567157
000240 20 32 2c 3d aa b4 06 bd 5e bc 10 bd 71 3b 22 bd
       0.04203999 -0.03288714 -0.03533589 -0.03960747
000250 82 7b 22 bc 6e 1a 91 bd d3 35 04 bc 33 30 88 3c
       -0.009917142 -0.07085119 -0.008069473 0.016624546
000260 8d 00 64 bd 2c cf 8e bd 8a 35 58 bd c9 3e 2e 3d
       -0.055664588 -0.06973109 -0.052785434 0.042540345
000270 29 e6 6f bd 14 eb 3d bd 02 56 4a bd eb d5 7f 3d
       -0.058569107 -0.046366766 -0.04939843 0.062459867
000280 dc b1 07 3c e4 ec 07 3d 27 fc 5c 3d 96 df 68 bd
       0.008282151 0.0331849 0.05395141 -0.056853853
000290 a1 2d e7 bc ad e9 32 bd 5a ab ee 3d 26 be a5 3d
       -0.02822 -0.04367988 0.116537765 0.080929086
0002a0 6a 8e 16 bd 74 13 b5 ba 3e 1e 67 3c d1 ae a0 3b
       -0.03675691 -0.0013815002 0.014106331 0.0049036522
0002b0 30 5f ff 3c 9c d4 fc bc 7b 57 a2 bd 42 47 8d bc
       0.031173319 -0.030863099 -0.07926842 -0.017245892
0002c0 f2 61 88 bd 90 c4 b1 bc 45 f8 bb bd ae 62 24 bd
       -0.066593066 -0.021700174 -0.09178213 -0.04013317
0002d0 c5 e9 c9 3c 6c c4 9e 3b 3a 08 cf 3b 57 22 d4 bd
       0.024647603 0.0048451927 0.0063181194 -0.10358112
0002e0 0c 8e e1 bc 94 f8 5f 3d 60 6e a1 bd f2 04 52 bd
       -0.027533554 0.054680422 -0.078823805 -0.051274247
0002f0 c6 b1 8b bd fe 27 06 3d 92 e4 21 3c b0 e1 40 bd
       -0.06821017 0.032752983 0.009881156 -0.047090232
000300 eb 64 00 bd cc 63 a0 3d ac c4 a4 3d 75 81 a4 3c
       -0.031346243 0.07831535 0.08045325 0.020081261
000310 12 cf 60 bc 8c 99 0d 3d 1f 3c 67 3c b4 71 75 3c
       -0.013721244 0.03457026 0.014113455 0.014980722
000320 61 bb db bd 2c 55 da bd c5 13 55 bd c7 e6 96 3b
       -0.10729099 -0.106607765 -0.052020807 0.0046051475
000330 46 8f bd bd c6 96 a5 bd c4 d4 4d bd 9d 2b a1 3d
       -0.09255843 -0.080853984 -0.050251737 0.07869647
000340 87 74 8c bd 58 c2 0b 3d 7d 5d 1c 3c 34 50 41 bc
       -0.06858163 0.034120888 0.009543774 -0.011798907
000350 8f c7 44 bd 3d 24 4c 3c 41 81 1d 3c 5a 19 23 bd
       -0.048041876 0.012459812 0.009613336 -0.0398191
000360 30 a3 e1 3c 78 9c 4d 3c 46 fa 62 3d 1f e6 f4 3c
       0.027543634 0.012549512 0.05541446 0.029894887
000370 29 87 87 3d 34 52 3d 3d 10 e6 a5 3d bf 14 92 3d
       0.06617577 0.046220973 0.081005216 0.07132863
000380 b6 dc a1 3d e0 7b b2 bc a7 53 b8 bd 88 13 87 bc
       0.079034254 -0.021787584 -0.090003304 -0.016488805
000390 97 97 b2 bd df a9 d2 bd db c8 e4 bd 03 88 ce 3c
       -0.0872032 -0.102863066 -0.11171123 0.02521134
0003a0 fd 2d 56 3d 8f fe 91 bd 9a 29 be 3c b1 5b f7 bc
       0.05228995 -0.07128631 0.023213197 -0.030195089
0003b0 b8 4d 96 bd e9 db 94 bc e9 57 89 bd 6a 82 c5 3c
       -0.073390424 -0.018171268 -0.06706221 0.024110038
0003c0 06 94 11 39 45 e1 5f bc cb 4d 1c bd 48 05 22 3d
       0.0001388342 -0.013664548 -0.038160127 0.039555818
0003d0 49 bc 8a 3d 05 9b 80 bb 27 17 95 3c 46 2e c8 bb
       0.06774194 -0.00392473 0.018199516 -0.006109032
0003e0 9f 52 8c 3d 79 1f 69 3c ae 0e cd 3d 5a cf 70 3d
       0.06851696 0.014228695 0.100125656 0.058791496
0003f0 7a 1f 8a bd 7e 73 59 3d 1c 0c 16 3d d4 67 8c 3b
       -0.06744285 0.053088658 0.036632642 0.004284838

encoder.1.1.weight f4 [32]
000000 3b 44 81 3f e4 24 80 3f f8 d4 81 3f 28 18 80 3f
       1.0098947 1.0011258 1.0143118 1.0007372
000010 52 73 83 3f 6a 37 82 3f 29 02 82 3f aa fd 78 3f
       1.0269568 1.0173161 1.0156909 0.9726206
000020 29 b0 70 3f 39 b5 7e 3f 12 06 81 3f ad 08 81 3f
       0.940188 0.99495274 1.0079978 1.0080773
000030 ca 0a 81 3f c7 53 7f 3f 18 bf 83 3f df 1d 7a 3f
       1.0081418 0.9973721 1.0292692 0.9770183
000040 48 a9 80 3f 56 87 81 3f 9a 9d 80 3f bc 26 81 3f
       1.005166 1.0119426 1.0048096 1.0089946
000050 47 26 7b 3f ca 0d 81 3f e1 ab 80 3f dd 5d 71 3f
       0.9810528 1.0082333 1.0052453 0.9428385
000060 a4 7a 81 3f 6c ad 73 3f 9c 2c 7d 3f 22 ee 80 3f
       1.0115552 0.95186496 0.98896194 1.0072672
000070 0c 2d 83 3f c3 e8 7d 3f e8 bb 7f 3f db 69 82 3f
       1.0248122 0.9918329 0.998961 1.0188555

encoder.1.1.bias f4 [32]
000000 f5 d6 aa 3a 26 48 b4 3c b8 2a 07 3c eb 39 07 3d
       0.0013034033 0.02200706 0.008249931 0.03301422
000010 b0 4a 5d 3d 99 da 0d 3d a1 75 a6 3c 38 7e 8f bc
       0.054026306 0.0346323 0.020319762 -0.01751624
000020 83 be 75 bd 92 a0 f7 3c 08 fd f9 3c 8f 38 20 3d
       -0.05999614 0.030227933 0.030516163 0.03911644
000030 43 03 2e 3c 57 4e 74 3d 78 9c 97 3d 3e 75 e8 3c
       0.010620895 0.059645023 0.07402891 0.028376218
000040 3b 25 fb 3b e2 8c f8 3d cd 6c c6 3c 49 2e 88 3d
       0.0076643503 0.12136246 0.024221802 0.06649453
000050 1f bf d2 3b e8 04 b8 3d b4 d6 37 3d f2 80 35 bd
       0.006431475 0.08985311 0.04488249 -0.044312425
000060 85 a2 af 3d 78 a1 07 bd 39 20 4e 3c ad 9b 8e 3d
       0.0857592 -0.033112973 0.012580925 0.069632865
000070 a3 4b 93 3d a5 a6 3e 3d 0f 31 69 bc 31 45 62 3d
       0.07192161 0.046545643 -0.014232888 0.055241767

encoder.1.1.running_mean f4 [32]
000000 b4 50 b1 bd 3f 57 06 bf 7b b9 95 3d c9 c6 8d be
       -0.08657971 -0.52476877 0.07310768 -0.27690724
000010 c5 14 51 bf 1b c8 05 3e ca 11 c8 be a7 b9 3d be
       -0.81672317 0.13064615 -0.39076072 -0.18527852
000020 f7 0c f1 3d 86 00 5d be 47 c0 0f 3e 6a 33 a3 3c
       0.11770051 -0.21582231 0.14038192 0.019921977
000030 57 37 6c be b3 95 ee be 4c bf 92 3e b7 58 97 be
       -0.23067985 -0.46598586 0.28661573 -0.29559872
000040 fe eb 85 3c 12 34 9c 3d 38 79 55 be 3c 46 05 bf
       0.016347881 0.07627119 -0.20847023 -0.52060294
000050 69 d0 be be ab 8a 2c bd 51 8f d3 3e e5 c9 08 3e
       -0.3726838 -0.04212443 0.4132028 0.13358267
000060 7d b0 65 bd 40 60 10 3e 09 03 f1 be 7a f2 9b 3d
       -0.056076515 0.14099216 -0.47072628 0.07614608
000070 3d 9d cd be e5 fa 22 be aa d0 32 3e 83 4e 1c 3e
       -0.40159026 -0.15916021 0.17462412 0.15264325

encoder.1.1.running_var f4 [32]
000000 b8 c5 c9 3f c2 30 f3 3f b1 86 7a 3f 92 43 96 3f
       1.5763464 1.8999255 0.9786177 1.1739371
000010 0c 38 89 3f d7 e8 81 3f bc c4 76 3f ed 64 6e 3f
       1.0720229 1.0149182 0.9639394 0.9312275
000020 c1 08 d8 3e 20 34 75 3f b5 3e da 3e b6 ec 86 3f
       0.4219418 0.9578266 0.42625967 1.0540988
000030 da da bb 3f 7b e6 cc 3e 56 45 20 3f 9f b2 99 3f
       1.4676163 0.40019593 0.626058 1.2007636
000040 f5 ee 80 3e 4c 0e a3 3e 95 c3 7c 3f 92 12 7b 3f
       0.2518231 0.31846845 0.98735934 0.9807521
000050 48 16 ed 3e 6c b8 f6 3e 0a be 2b 3f ec 9f 32 3f
       0.46306062 0.48187578 0.6708685 0.6977527
000060 a0 6a b6 3e b1 8e 96 3f e8 52 2b 3f d2 d7 a4 3e
       0.35628223 1.1762296 0.6692338 0.32195908
000070 06 06 7b 3f c5 4a 2e 3f 07 90 cb 3f dd 8d 02 3f
       0.98056066 0.6808284 1.5903329 0.50997716

encoder.1.3.weight f4 [32, 32, 3, 3]
000000 02 6b 24 bd 1f ff 41 bd e3 fb ef bb a5 d6 8e bd
       -0.040141113 -0.047362443 -0.0073237284 -0.06974534
000010 18 2d 31 bd 0e 15 9f 3c b3 ad b4 bc 9d 0e 11 bd
       -0.043255895 0.01941922 -0.022055482 -0.035414327
000020 10 43 03 3d 52 77 ce 3c a9 e5 27 3d 59 a4 46 bd
       0.032046378 0.02520338 0.040990505 -0.048496578
000030 6e c1 dd bb b9 f6 a9 bc 36 00 29 3d 4a f7 85 3c
       -0.0067674434 -0.02074753 0.041259967 0.016353268
000040 3f de 3f 3c fc 3a 61 bd c0 8a 47 bd 62 6e 05 bd
       0.011710702 -0.054987893 -0.048716307 -0.032575972
000050 5c c5 01 3d 68 b5 05 bd 95 a7 00 bd b0 04 91 bd
       0.031682357 -0.032643706 -0.03140982 -0.07080972
000060 fd af 94 3c 4d a5 98 bc 7c ed 9f bc 5c 72 36 bc
       0.018150324 -0.018633509 -0.019522421 -0.011135664
000070 f3 08 26 3d c4 27 f8 bc f3 a2 92 3c 9b 0a a5 3d
       0.04053588 -0.0302924 0.017899966 0.080586635
000080 b7 ba 71 39 c7 09 13 3c ab 9e 85 3c 14 8f 52 bd
       0.00023053108 0.008974499 0.01631101 -0.05140598
000090 99 68 30 3c 36 73 26 3c c2 73 2e bd d9 3f 52 3d
       0.0107671255 0.010159304 -0.042590864 0.05133042
0000a0 3c 8b 6b bd 7d 7e 5a bc 2a aa da bc 67 8a 82 3d
       -0.05750583 -0.013335821 -0.026692469 0.063740544
0000b0 c0 f6 4b 3d 19 21 be bc 99 b6 84 bc 25 36 d0 bc
       0.049795866 -0.023209142 -0.01620035 -0.025416443
0000c0 dc 0a 4c bc c5 68 9a 3c 8e 65 60 3c 1f bf 84 bd
       -0.012453761 0.018848786 0.0136960875 -0.06481766
0000d0 aa 03 05 3d 17 6f f0 bc 1f 27 15 bc 6d db 83 3b
       0.032474197 -0.029349847 -0.0091035655 0.0040239603
0000e0 b6 c3 ba bc f3 12 07 3d 3a b9 00 bd b6 da 41 3d
       -0.0227984 0.032977056 -0.031426646 0.04732772
0000f0 24 56 0a bd 75 b9 0f 3d 80 f3 bb 3b 3e 6b 2f bd
       -0.033773556 0.035088975 0.0057358146 -0.042826883
000100 f5 fe d1 3b 02 f0 3c bb a9 ed aa bc 70 10 7d 3c
       0.006408567 -0.002882958 -0.020865278 0.015445814
000110 89 ca 55 bd 58 ce 50 bd aa 00 31 ba 66 2d 7f bd
       -0.052195106 -0.050978035 -0.0006752113 -0.062299155
000120 b0 52 01 3d 9a 78 cf bb 6a c5 82 3b 1b 8a fe bc
       0.031572998 -0.0063315155 0.0039908187 -0.031071713
000130 41 b0 75 ba 25 9e 72 3c 04 17 f0 bc 78 2f d5 3c
       -0.0009372272 0.014808212 -0.02930785 0.026023611
000140 0e 82 c1 bc af 57 9c 3c 3d fb 63 3d 1e 5d 08 bd
       -0.023621585 0.01908478 0.05565952 -0.03329193
000150 24 cf 73 bc 81 57 20 3c 77 7b 31 bd 9f 76 f4 3c
       -0.014880929 0.009786488 -0.043330636 0.02984172
000160 52 45 1b 3d d2 95 4f 3d 92 6b 70 bd 05 32 37 bd
       0.037907906 0.05067999 -0.058696337 -0.044725437
000170 1d 17 c4 3a c4 f3 17 3d 15 86 61 3d 3e 4e 2b 3d
       0.0014960502 0.037097707 0.05505951 0.041822664
000180 4b 85 06 bd a7 94 da 3c 25 34 b9 3c 6f 6d ef 3c
       -0.03284196 0.026682211 0.022607872 0.029226987
000190 01 1d a9 bb 7b 41 13 3d cf c2 18 3b 9f 79 10 bd
       -0.0051609282 0.03595112 0.0023309474 -0.035272237
0001a0 97 66 d1 3a 06 62 b9 bc f8 a9 0c 3b 5e 08 80 3d
       0.0015976009 -0.022629749 0.0021463614 0.06251596
0001b0 ee c9 81 bb 30 37 12 bd a5 19 bf 3c 0e 97 51 3d
       -0.0039608395 -0.035697162 0.023327658 0.051169448
0001c0 d2 b6 85 3d 0a 1a 7a bc 75 cb 1b 3d 92 25 a5 bc
       0.06529011 -0.015264997 0.03803583 -0.020159516
0001d0 1f 72 04 bd 60 b1 2a bc df 62 d4 bb f6 06 6d 3c
       -0.032335397 -0.010418266 -0.006481513 0.014466992
0001e0 6d 55 26 bb cb 7c 66 3c 5a e9 4e bd 7f 00 40 3d
       -0.0025380508 0.014067839 -0.05051551 0.046875473
0001f0 cf 6c 0c bb 7d b7 5d 3d 38 91 3f bd ed e1 2c 3d
       -0.002142716 0.054130066 -0.04676935 0.042207647
000200 54 5a d7 3c 07 4c 84 3c 67 e6 c5 3d a2 b0 68 bd
       0.026288189 0.016149534 0.096630864 -0.056809075
000210 28 85 47 3d b1 fb 0a 3c cc b1 c4 3d 45 bb 7c bd
       0.048710972 0.0084828595 0.096042246 -0.06170203
000220 52 76 22 bd 8f 02 4d 3c 42 a8 cb 3a c4 5c 3b 3d
       -0.03966362 0.012512817 0.0015537816 0.045742765
000230 91 64 25 bd bc 5a 29 bd c4 3a f1 3b 63 8f 1d bd
       -0.04037911 -0.041346297 0.0073617417 -0.038466822
000240 9f d3 5a 3d e2 8b 68 3c d7 ec fa 3a 91 01 13 3d
       0.053424474 0.014193507 0.001914407 0.035890166
000250 f1 89 bf 3d 90 a4 e4 3d 78 96 00 bd 46 47 50 bd
       0.09352482 0.111642 -0.0313935 -0.05084922
000260 1c c9 1b bd 2c ec 0b bd 41 03 87 bb a8 97 88 3c
       -0.03803359 -0.034160778 -0.004120261 0.016673878
000270 3b e0 8d 3d 7a 9a cc bd c2 4a a7 3d fc 20 31 bd
       0.06927534 -0.099904016 0.08168556 -0.043244347
000280 55 01 92 3b 11 dd 7b bc d4 54 6c bc 9a 6f 81 3d
       0.004455725 -0.015372531 -0.0144245215 0.063201144
000290 66 50 0c bd 3d 8b ba 3c 12 c3 0f bc 81 d9 d4 3c
       -0.03425636 0.022771472 -0.008774536 0.02598262
0002a0 5a 91 2c bc 46 61 59 3c 03 0e 8a bd e5 dd 64 3d
       -0.010532701 0.013267821 -0.06740954 0.055875678
0002b0 11 cc 32 3d 17 8b 0c 3d 73 bd 0d bd 7a dd 7b bc
       0.043651644 0.034312334 -0.0346045 -0.015372628
0002c0 f0 50 0f bc 70 df cd 3c b9 6d 07 bc 1d e5 5c bd
       -0.008747324 0.025130957 -0.008265906 -0.053929437
0002d0 cb a8 08 3d f7 78 c0 3c 66 c9 12 3d 54 48 18 bd
       0.0333641 0.02349518 0.0358366 -0.037178352
0002e0 46 0a 58 3d 10 f1 47 3c 3d 86 c6 3c 0a eb 27 3c
       0.052744173 0.01220347 0.024233932 0.010248909
0002f0 65 97 99 bc 8b 70 80 3d 7c ae c3 3c c1 61 bf 3b
       -0.018748948 0.06271466 0.023886912 0.0058405106
000300 0f b7 fd bb 02 90 a9 bd 84 06 d3 bc 3e 14 bb 3c
       -0.0077427696 -0.082794204 -0.025759943 0.0228368
000310 be 62 98 bc 3d 6d 45 bc 78 25 70 3d 1e 16 80 bc
       -0.018601771 -0.01204997 0.058629483 -0.015635546
000320 59 f9 b8 3c f2 93 cd 3c db b1 a6 3c b8 6d 85 3d
       0.022579836 0.02509496 0.02034848 0.06515068
000330 1f 98 b9 bc 6d 93 65 3c 54 bd 56 3c 5a af 24 3d
       -0.022655545 0.0140122 0.013106663 0.04020629
000340 db 8f e4 3c d1 86 18 3d dc 93 70 3d 7b 35 f4 bc
       0.027900627 0.037237946 0.05873476 -0.029810658
000350 ce 17 43 3c f8 7c 25 3d 69 d7 09 3d 3f 75 1d 39
       0.011907531 0.040402383 0.033652697 0.00015016364
000360 16 51 08 bd 83 9f 65 3d 4b 68 c2 bc e6 58 54 bb
       -0.033280455 0.056060325 -0.023731371 -0.003240162
000370 ef 0f d3 bd 61 fe bf bd 07 46 43 3c 90 45 86 3d
       -0.103057735 -0.09374691 0.011918551 0.06556237
000380 a5 43 52 3c a0 3d 09 3d 71 75 f7 3c 92 73 f1 bc
       0.0128335105 0.033506036 0.030207368 -0.029474054
000390 3a 8b b2 bc c7 81 17 3c 26 06 70 3c 8c 0c ec 3c
       -0.021794904 0.00924725 0.014649903 0.028814577
0003a0 9d 01 57 bd 63 a1 49 bd 02 ca 13 bc b7 ef 81 3c
       -0.052491773 -0.049226176 -0.00902033 0.015861375
0003b0 8d 86 12 bc 2b 9f 0e 3d 1d f9 a5 bd e6 fb e5 bd
       -0.008943212 0.034819763 -0.08104155 -0.112296864
0003c0 e3 11 b2 3d 2e 49 5d 3c 01 6f 6d 3d 50 21 7a bc
       0.08694818 0.013506217 0.05796719 -0.015266731
0003d0 1d e2 44 3d 10 14 19 bc 80 48 8c 3d 1e b5 fe 3d
       0.0480672 -0.009343162 0.06849766 0.12436889
0003e0 49 17 0d 3e 10 02 6a 3d d5 33 d6 3c 13 4b 90 bd
       0.13778414 0.057130873 0.026147762 -0.07045569
0003f0 c3 3c d1 3d c9 06 98 bc b1 fb 57 3d e9 0c 3e bd
       0.102166675 -0.018557923 0.052730266 -0.04639903

encoder.1.4.weight f4 [32]
000000 d8 cb 80 3f 56 07 7e 3f 45 b8 84 3f 44 83 80 3f
       1.0062208 0.99229944 1.0368735 1.0040059
000010 99 8d 7d 3f a0 74 81 3f 9b e9 74 3f 2f fb 86 3f
       0.99044186 1.0113716 0.95668954 1.0545405
000020 b6 a2 7f 3f a2 d2 79 3f 9a 58 85 3f 59 dd 7c 3f
       0.9985765 0.97587025 1.0417664 0.9877525
000030 93 f1 7e 3f 14 73 6e 3f 2d b5 7f 3f cc b7 85 3f
       0.99587363 0.93144345 0.9988583 1.0446715
000040 3e b6 7f 3f 94 68 73 3f a0 38 7c 3f c8 2e 80 3f
       0.99887455 0.9508145 0.985239 1.0014277
000050 09 25 73 3f bf 7e 80 3f c8 ab 7c 3f f6 a1 79 3f
       0.94978386 1.003868 0.9869962 0.9751276
000060 c2 cf 7f 3f 20 5e 7c 3f 97 70 87 3f c6 94 7a 3f
       0.9992639 0.98581123 1.0581235 0.9788326
000070 31 01 80 3f 41 d8 7d 3f c3 30 8b 3f 6f d7 7c 3f
       1.0000364 0.991581 1.0874256 0.98766226

encoder.1.4.bias f4 [32]
000000 b7 a4 91 3d 10 14 06 3d c2 aa e7 3d 58 13 e5 3c
       0.07111495 0.032733977 0.11311866 0.027963325
000010 9b 75 ab 3d aa e4 34 3c d8 07 93 3b 2a 00 e1 3d
       0.08372041 0.011040846 0.004487019 0.109863594
000020 dc ad f7 3b c1 6a f8 3a 63 49 65 3d 27 cf f6 ba
       0.0075585674 0.0018952714 0.05597819 -0.0018830047
000030 e1 66 30 3d 01 1f 35 bd a1 c3 b2 3c a2 1c ff bc
       0.043066863 -0.04421902 0.021821799 -0.031141583
000040 2b 7c ea bc 56 b8 67 bc 3a 8a ad 3b f6 c5 1b 3d
       -0.028623661 -0.01414307 0.005296019 0.038030587
000050 4d 5a 5d bc c1 1a ab bc 56 2c bc bc 37 af 06 3b
       -0.013510299 -0.02088678 -0.02297036 0.0020551214
000060 50 9d d5 37 9f 12 f7 bb 18 be 55 3e 82 e6 38 bb
       2.5464833e-05 -0.0075400616 0.20873296 -0.0028213565
000070 df 77 93 bb 6c 71 ea 3c eb 2f 32 3e 79 db b3 bc
       -0.0045003737 0.028618537 0.17401092 -0.021955239

encoder.1.4.running_mean f4 [32]
000000 76 e2 a7 3e f9 9e fb be f8 f5 10 bd 21 62 9c be
       0.32789963 -0.49144724 -0.035390824 -0.30543616
000010 77 8f b7 be c6 05 ce bd b3 dc 92 bd 36 79 17 3e
       -0.35851642 -0.10059695 -0.07171001 0.14792332
000020 ed 21 93 be 99 d8 c6 be ad 50 54 be e0 ab 69 bd
       -0.2873682 -0.38837126 -0.207339 -0.05704868
000030 a3 fa 98 3e e4 2c bc be 86 76 67 bf 8a 51 2e bd
       0.2987872 -0.36753 -0.9041523 -0.04255823
000040 23 20 d9 bc 10 19 7f 3e 2f 66 f4 3c 95 9e 0e 3e
       -0.026504582 0.24911904 0.029833881 0.13927682
000050 2b 0a a6 be e9 d4 a8 3e 12 70 1b 3e f1 e5 50 bf
       -0.32429633 0.32974938 0.1517947 -0.8160086
000060 81 03 82 bd 3b 7e 9e 3d 33 88 cc be 61 fc 09 bf
       -0.063483246 0.0773892 -0.39947662 -0.53900725
000070 d3 a2 be bd c8 c0 ab 3e 36 71 bc be 0b 38 96 3e
       -0.093084 0.33545518 -0.36805123 0.29339632

encoder.1.4.running_var f4 [32]
000000 b1 09 8a 3e 6f b6 4a 3f 19 c6 1c 3f 29 e6 0b 40
       0.2696052 0.7918462 0.61239773 2.1859229
000010 94 db a3 3e b6 f1 11 40 74 b4 34 3f 6e ee b2 3e
       0.32003462 2.2803779 0.7058785 0.34947532
000020 84 4d 23 40 73 eb 5a 3f 46 63 32 3e 5b b6 9f 3f
       2.5516062 0.85515517 0.17420682 1.2477525
000030 8c b4 05 3f 07 bb 09 40 8a f7 c0 3f 48 65 d3 3e
       0.5222862 2.1520402 1.5075543 0.4128821
000040 89 f8 b9 3e d5 cc 23 3f 44 6e b3 3f c6 6b 03 3f
       0.3632243 0.63984424 1.4018025 0.51336324
000050 bd 40 96 3f 96 e1 9f 3e 02 0d b3 3f 60 ba 99 3f
       1.1738507 0.31226796 1.3988345 1.2010002
000060 9b 32 2b 40 73 d2 84 3f 14 de 8d 3e 81 9e ca 3f
       2.6749637 1.0376724 0.27708495 1.5829622
000070 89 b1 29 40 28 86 ed 3e a6 ba bc 3e 9b 0b c7 3f
       2.651461 0.46391416 0.3686115 1.5550417

encoder.2.0.weight f4 [64, 32, 3, 3]
000000 d9 34 13 bc 3f 02 ae ba 79 72 d6 bc 42 a0 ab bd
       -0.008984768 -0.0013275816 -0.026177632 -0.08380176
000010 61 1b bf bd ac 66 cd bc 1e 79 91 bd a8 e3 1b bd
       -0.09331394 -0.025073372 -0.071031794 -0.038058907
000020 01 d5 e7 3b d5 23 1f bd 1d d9 1e bc 34 a5 9b 3c
       0.0070749526 -0.03885253 -0.0096953185 0.018999673
000030 1c a4 3a 3c 1a c1 5e 3d f5 1f f0 3b 85 c5 68 bd
       0.011391666 0.054383375 0.0073280283 -0.056828994
000040 44 06 88 bc 61 cb 17 bc c8 b1 44 bd a8 d3 b9 3c
       -0.01660455 -0.009264798 -0.048021108 0.022683933
000050 36 10 05 bd 8b fb e6 3c 0e 9e f3 3d e8 06 a3 3c
       -0.032486163 0.028196117 0.11895381 0.019900754
000060 71 08 86 bc b7 9f 98 ba e7 49 84 bc bc 27 8c bc
       -0.016361447 -0.0011644278 -0.01614852 -0.01710879
000070 d6 72 47 bd cf 21 28 bd 6e ad 83 3d 21 44 c7 3d
       -0.0486935 -0.041047867 0.064295635 0.097297914
000080 74 13 29 3b c6 b6 36 3d 6a 26 9d 3d 4a eb 4a 3d
       0.0025798948 0.0446079 0.076733425 0.049540795
000090 f2 a3 47 bd 8c ba 70 bd e3 ce 94 bc 36 fc 1d bd
       -0.048740335 -0.058771655 -0.018165058 -0.038570605
0000a0 27 bc 20 3d 41 55 8b ba 7f 27 bc 3c 0a 04 66 3d
       0.039241936 -0.0010630266 0.022968052 0.056156196
0000b0 bc b8 bc bc 7b 02 7a 3d d2 6b a4 bb 99 96 3b 3d
       -0.023037307 0.06103752 -0.005017736 0.045797918
0000c0 f8 c7 08 bd c8 4c 85 3d 59 3e 27 3d b7 2f 45 3d
       -0.03339383 0.065087855 0.040830944 0.048141208
0000d0 0a c8 67 3c bf fe f5 3c 44 87 e2 bc 3a e4 f1 bc
       0.014146814 0.030028699 -0.02765239 -0.029527772
0000e0 ad 7a d9 bc 48 e6 10 bd 70 f2 16 bd 69 27 02 3d
       -0.026547754 -0.035375863 -0.0368523 0.031775866
0000f0 5f a5 db bc d7 d9 2d 3d e6 6e 55 3c 17 10 96 3a
       -0.026812254 0.042444076 0.0130269285 0.0011448887
000100 23 12 9e bd 2c 26 20 bc a5 4f 96 3d 8c 9c 8c 3c
       -0.07718303 -0.009774726 0.0733941 0.017164491
000110 8f 3d 27 3c 95 04 da 3b f5 a5 ff 3c a2 05 fe bc
       0.010207548 0.0066533783 0.031207064 -0.031008545
000120 00 28 64 bd 06 ac 96 bd a6 90 5d bd b8 0d f3 3c
       -0.05570221 -0.073570296 -0.054093026 0.029669628
000130 89 6a 36 bd 75 4e a9 bc 9d da fc bc b1 75 09 bd
       -0.044535194 -0.020667294 -0.030865962 -0.033559505
000140 bd c6 23 3d b0 5c ad 3c 6a 06 99 3c e9 88 0a bd
       0.039984453 0.02116236 0.018679816 -0.033821974
000150 81 df 04 3d 07 40 f2 bc 4d ef 42 bd a9 64 8a 3c
       0.032439712 -0.029571546 -0.047591496 0.016893702
000160 3f e6 98 3c 24 92 07 3d f8 a4 0e bb 1a 7b 02 3c
       0.018664477 0.033098355 -0.002176581 0.00796392
000170 ff 0c a0 bc 2d 29 76 3d e1 8e d2 3c 77 df 91 3c
       -0.019537447 0.060097862 0.025702896 0.017806752
000180 27 1e c4 bc 53 ac 2e 3b fe 0d 0f 3c fc 46 10 3d
       -0.023940159 0.0026653006 0.008731363 0.035223946
000190 be 6e 31 bc 6c a1 16 3d e7 c8 67 bc 0a da 1e bd
       -0.010829626 0.036775038 -0.01414702 -0.038782157
0001a0 ab 14 31 bc 63 0d 1a 3d ff a0 44 bd 93 fc 9a bc
       -0.01080815 0.037610423 -0.0480051 -0.018919265
0001b0 7d 53 90 bd 7f 7e a1 3d ba 79 8a 3d ee 2b be bd
       -0.07047174 0.07885455 0.06761499 -0.09285723
0001c0 69 bc 68 3d 11 0f 58 3d ce 49 56 bd 35 c6 05 3c
       0.056820307 0.052748743 -0.05231648 0.008164932
0001d0 e7 90 03 bd af 4b da 3c 30 93 d8 ba 9d a8 ed 3c
       -0.03212061 0.026647417 -0.0016523357 0.029011065
0001e0 5e 0a b7 bc dd ef 89 3c 3b 58 4f ba 52 5e e8 3c
       -0.02234381 0.016838009 -0.00079095707 0.028365288
0001f0 2e 38 58 3d ea 19 04 bc 5c eb 0c bd a7 8a 8c 3c
       0.052787952 -0.008062819 -0.034404144 0.017155958
000200 ed 3f 8b 3d 15 fc 28 3d 45 49 5b bc 41 a9 83 3d
       0.06799302 0.04125603 -0.013384168 0.06428767
000210 75 ae 34 bd e6 98 ee 3b f0 40 11 bd 08 40 e3 bc
       -0.044111688 0.0072814105 -0.03546232 -0.027740493
000220 0c e5 34 3d 6a 20 9f bd 48 1d 99 3d 9e f0 29 bc
       0.04416375 -0.07769854 0.07476288 -0.010372309
000230 b0 bb e0 bd 9a 46 08 3d a9 e7 f1 3c 2f bc 23 bd
       -0.109732985 0.033270456 0.02952941 -0.039974388
000240 76 c9 c2 bc 48 8d 26 bd 61 27 6d bd 33 ab 09 3d
       -0.023777705 -0.04066208 -0.057898883 0.033610534
000250 69 78 a4 bc 48 4b 92 3a 0d ea 1e bd f1 11 93 3c
       -0.020076947 0.0011161352 -0.038797427 0.017952891
000260 eb 50 9d bb 09 af 14 3d 2e 70 e3 ba f4 27 09 bd
       -0.004800906 0.03629974 -0.0017352158 -0.033485368
000270 37 b8 0d bc 01 24 0e 3d 4c 52 8e 3c ed 86 e1 bc
       -0.008649877 0.034702305 0.017373227 -0.027530158
000280 7c cd 6d bd 01 e4 24 3d 4b b2 4f 3d 8b 69 31 bd
       -0.058057293 0.040256504 0.050707143 -0.043313544
000290 4f c3 f0 bc 23 40 1b bb e0 51 86 bd bb de d7 bb
       -0.029390005 -0.0023689352 -0.06558585 -0.006587831
0002a0 5e 2c c0 3b 5e 6c b3 3c fa 79 fe bc e2 9e d1 bc
       0.005864664 0.02190226 -0.031064022 -0.025588457
0002b0 64 d8 82 3b ba 47 0f bd 12 e9 96 3c f2 72 56 bc
       0.003993081 -0.034980513 0.018421683 -0.013088929
0002c0 2b 1d 41 bc 11 0f 2a bd 6b 89 36 bc 1b a8 a0 3c
       -0.011786739 -0.041518275 -0.011141161 0.019611409
0002d0 97 52 25 3d df 42 97 bd 48 11 85 bd 3d 75 0a 3d
       0.040361967 -0.073858015 -0.06497437 0.033803213
0002e0 df 17 10 bd aa fa 86 3c 3e 19 35 3d a8 7d 8a 3c
       -0.035179015 0.016476948 0.044213526 0.01690562
0002f0 75 6d 15 ba 51 61 c7 bd 6c 64 b5 bd 92 44 7b bd
       -0.00057002093 -0.097353585 -0.088570446 -0.06134469
000300 66 4e 12 bd 10 80 d3 bb d7 00 e5 bc 72 54 25 3d
       -0.035719298 -0.006454475 -0.027954502 0.040363736
000310 ff 22 9c bc 57 62 25 3c a7 44 60 3d 04 55 8d 3b
       -0.019059656 0.010094247 0.054752972 0.004313113
000320 20 d3 d2 bb b9 9c 66 3d bc b5 27 39 2a 1a 3d bd
       -0.0064338595 0.056301806 0.00015994062 -0.04616753
000330 e9 5d 1c 3d c3 13 fc 3c fb 57 6b 3d 31 9f cc 3c
       0.038175497 0.030771142 0.05745695 0.024978252
000340 3a c1 15 bd 8a 8b ac bc 55 e0 63 3d a3 10 c0 3d
       -0.03656123 -0.021062631 0.05563386 0.09378173
000350 d1 e8 06 3d a3 65 6e bd b0 26 24 bc c2 f0 af bc
       0.032936875 -0.058202397 -0.010018989 -0.021477107
000360 02 06 15 bd fd 7c 94 3d b8 66 0f 3d ea c0 11 bc
       -0.036382683 0.07250402 0.03501007 -0.008896092
000370 90 47 75 3d 74 d8 16 bd 99 dc 82 3c 85 4a 59 3d
       0.0598827 -0.03682752 0.01597433 0.053049583
000380 0d 61 fd ba c6 9c 69 bd 94 fc b9 bc 8a d4 39 3c
       -0.0019331292 -0.057034276 -0.022703446 0.011342177
000390 03 83 08 bd 23 e9 8c bd 33 3f f8 ba 5a c7 80 3c
       -0.033328068 -0.06880405 -0.0018939733 0.015720058
0003a0 93 d0 d4 3b 8c 2e 87 bd 97 08 8d 3d e1 b8 99 3b
       0.0064945905 -0.06600675 0.06886404 0.0046912287
0003b0 e8 87 8c b6 ad 6b f8 3b 28 6a 8a bd b9 00 4e bd
       -4.1881467e-06 0.0075811953 -0.06758529 -0.050293658
0003c0 15 cf bb 3c db 5a 0d 3d 5e 06 63 bc 5e 9d 33 bc
       0.022925893 0.034510475 -0.0138564985 -0.010962812
0003d0 69 df 7a bd f8 bb a4 3c 57 91 ed 3b 2f dc 25 bc
       -0.061248217 0.020109162 0.007249992 -0.010123297
0003e0 6b 86 e6 3c 7e 74 57 bd 8e c5 9d bd 24 87 2d bd
       0.028140267 -0.05260133 -0.07703696 -0.04236521
0003f0 8c 06 a6 3c 03 14 71 3d 1e 21 3f 3b 32 c6 8c 3d
       0.020266794 0.058856975 0.0029164026 0.0687374

encoder.2.1.weight f4 [64]
000000 c3 49 82 3f 0d f8 7c 3f b5 22 72 3f 69 af 81 3f
       1.017876 0.98815995 0.9458421 1.0131656
000010 ce ad 81 3f e9 ad 80 3f b7 ff 80 3f bd 4f 80 3f
       1.0131166 1.0053073 1.0078038 1.0024334
000020 a9 96 82 3f 2c 2d 7d 3f 61 14 7b 3f d1 2f 77 3f
       1.0202228 0.9889705 0.9807797 0.9655734
000030 82 b0 7e 3f 56 97 7f 3f a4 5d 7b 3f c9 d6 7f 3f
       0.9948808 0.99840295 0.9818976 0.9993711
000040 5d 6d 81 3f e1 30 7d 3f fe 7d 85 3f 3c 4b 7a 3f
       1.01115 0.9890271 1.0429075 0.9777105
000050 50 4b 7f 3f ef 38 80 3f 86 ee 82 3f f4 57 80 3f
       0.9972429 1.0017375 1.0229042 1.0026841
000060 71 a1 6f 3f 1c 06 7b 3f fe 45 7f 3f 4f 35 7f 3f
       0.93605715 0.980562 0.99716175 0.9969072
000070 0d 1e 84 3f d6 7f 81 3f b9 f1 7c 3f d5 13 7f 3f
       1.0321671 1.0117137 0.9880634 0.99639636
000080 1e 28 7c 3f 35 ac 7f 3f 6e 74 81 3f e6 de 82 3f
       0.98498714 0.9987214 1.0113657 1.0224273
000090 b2 e3 7f 3f 40 5e 7d 3f f6 b4 83 3f 95 c7 85 3f
       0.9995681 0.9897194 1.02896 1.0451533
0000a0 4b 4b 7c 3f 71 12 7f 3f 1f fb 7c 3f f8 d2 77 3f
       0.9855239 0.99637514 0.9882068 0.9680629
0000b0 17 7d 80 3f 7d f2 82 3f 04 7b 80 3f 9d 19 80 3f
       1.0038174 1.0230252 1.0037541 1.0007817
0000c0 87 f6 83 3f 47 8a 82 3f f9 53 82 3f 4b d7 7b 3f
       1.0309609 1.0198449 1.0181876 0.98375386
0000d0 ff 29 7c 3f bd 66 7b 3f a1 c5 82 3f ba 90 82 3f
       0.9850158 0.9820364 1.0216562 1.0200417
0000e0 65 e6 7b 3f bf 24 86 3f 9f 8b 75 3f cc 96 7b 3f
       0.9839843 1.0479964 0.9591617 0.9827697
0000f0 cf 0c 85 3f 3c 09 81 3f 97 0a 81 3f e6 53 81 3f
       1.0394534 1.0080943 1.0081357 1.0103729

encoder.2.1.bias f4 [64]
000000 e9 b9 6a 3c 23 a6 c7 3c 28 dc a9 bd 1a 0d c8 3c
       0.014326551 0.024371212 -0.082939446 0.02442031
000010 15 26 b8 bd 5b 42 ef bd b6 e0 f6 3c 5e b7 80 3d
       -0.089916386 -0.11682578 0.030136447 0.062849745
000020 f7 cd 0b 3e c8 6c b9 3c 8d 0f a4 bb 83 61 a6 3d
       0.13652788 0.022634879 -0.0050067366 0.08124068
000030 62 a5 8e 3c 03 e1 8d 3c b8 73 22 3d df f8 e9 3d
       0.017412845 0.017319208 0.03966114 0.114244215
000040 b9 32 e5 3b 11 22 59 3c 78 58 ae 3e 18 70 53 3d
       0.006994572 0.013252751 0.3405187 0.051620573
000050 e7 a9 0e 3d 56 77 fc 3d 8a f3 0a 3d 09 a5 a2 3d
       0.03483 0.12327449 0.033923663 0.07941634
000060 47 d9 3c bd 53 4c 20 3c 62 79 82 3a 9e a4 77 3b
       -0.04610565 0.009783822 0.0009954388 0.0037787328
000070 f3 99 4c 3d 16 ca 54 3c 60 a9 3f bd fb bb 15 3d
       0.049951505 0.012987634 -0.046792388 0.036556225
000080 3e 5a a5 3b 82 a1 82 3b 48 54 af 3d 2c fe 43 3d
       0.005046158 0.0039865384 0.08560997 0.04784982
000090 0c fe a0 3d 71 5a ae bc 73 3c 03 3d e9 65 13 3e
       0.078609556 -0.02128336 0.03204007 0.14394344
0000a0 cf 44 a1 3d e1 88 91 3c 2a 07 f4 3d 4f 65 8e 3b
       0.07874452 0.017765464 0.11915429 0.004345573
0000b0 5b f7 23 3e 56 0d d7 3d 00 3a f9 bb c8 6b b1 3d
       0.16012327 0.105005905 -0.007605791 0.08663136
0000c0 02 62 95 3d 45 5b 98 3e 54 27 8b 3e 85 75 84 3c
       0.07294084 0.29757133 0.27178442 0.016169319
0000d0 9a e9 0c 3d 51 ea 23 bc 75 a4 87 3d 71 58 01 3e
       0.034402467 -0.010004596 0.066231646 0.12631394
0000e0 87 ad 51 3c af b3 1d 3e f2 81 cc 3b 55 9c 50 bd
       0.01279772 0.15400575 0.0062410766 -0.05093034
0000f0 b9 17 01 3e 80 4f ab 3e ec 13 ea 3c e5 20 23 3d
       0.12606706 0.3345909 0.028573953 0.039826293
